model_gen.pth (torch, 596294 bytes, 59 tensors)

net.network.0.dconv1.weight f4 [3, 3, 2]
000000 7b c7 b8 b9 b4 6d 25 ba ea 8a de ba 62 2c f6 ba
       -0.0003524384 -0.00063105975 -0.0016978655 -0.0018781538
000010 3d 74 99 39 18 d9 30 b8 e7 c3 82 3a 58 03 e2 3b
       0.00029269038 -4.2163854e-05 0.0009976596 0.0068973713
000020 87 1b 4e 3b b2 2d df bb b3 bc 81 bb b3 8f b8 ba
       0.0031449513 -0.006810867 -0.0039592623 -0.0014080912
000030 30 67 4a ba 76 c3 5f bb ec 75 63 bb e8 74 9b ba
       -0.00077210646 -0.0034143603 -0.0034707738 -0.0011860402
000040 f1 7d 51 3a 0b 29 9b 3a
       0.0007991484 0.0011837793

net.network.0.dconv1.bias f4 [3]
000000 98 b6 13 bd c1 20 91 3e 3b 0c 33 be
       -0.036062807 0.28345302 -0.17485134

net.network.0.dconv2.weight f4 [3, 3, 2]
000000 0c c1 17 bb c0 6e 8e 3a c1 8c f9 3c c4 a5 a7 bc
       -0.0023155836 0.0010866746 0.030462625 -0.020464785
000010 18 21 17 bc 81 58 e7 3b be 08 2c 3c 2f ac a1 3b
       -0.009224199 0.007060111 0.010500131 0.004933856
000020 60 f5 52 bd ee b8 a0 bc a2 a5 ee 3c 19 5e 45 3c
       -0.05150354 -0.019619431 0.029131714 0.01204636
000030 43 96 82 bb 67 49 f1 38 16 e9 23 3d 78 d3 d3 bb
       -0.0039851977 0.00011505448 0.04001721 -0.006464418
000040 0b d2 8a bc 9a e2 d8 3a
       -0.01694586 0.0016547025

net.network.0.dconv2.bias f4 [3]
000000 f8 1e 61 bd 2b b3 88 be 68 34 4b bc
       -0.054961175 -0.26699194 -0.012402631

net.network.0.net.0.weight f4 [3, 3, 2]
000000 7b c7 b8 b9 b4 6d 25 ba ea 8a de ba 62 2c f6 ba
       -0.0003524384 -0.00063105975 -0.0016978655 -0.0018781538
000010 3d 74 99 39 18 d9 30 b8 e7 c3 82 3a 58 03 e2 3b
       0.00029269038 -4.2163854e-05 0.0009976596 0.0068973713
000020 87 1b 4e 3b b2 2d df bb b3 bc 81 bb b3 8f b8 ba
       0.0031449513 -0.006810867 -0.0039592623 -0.0014080912
000030 30 67 4a ba 76 c3 5f bb ec 75 63 bb e8 74 9b ba
       -0.00077210646 -0.0034143603 -0.0034707738 -0.0011860402
000040 f1 7d 51 3a 0b 29 9b 3a
       0.0007991484 0.0011837793

net.network.0.net.0.bias f4 [3]
000000 98 b6 13 bd c1 20 91 3e 3b 0c 33 be
       -0.036062807 0.28345302 -0.17485134

net.network.0.net.3.weight f4 [3, 3, 2]
000000 0c c1 17 bb c0 6e 8e 3a c1 8c f9 3c c4 a5 a7 bc
       -0.0023155836 0.0010866746 0.030462625 -0.020464785
000010 18 21 17 bc 81 58 e7 3b be 08 2c 3c 2f ac a1 3b
       -0.009224199 0.007060111 0.010500131 0.004933856
000020 60 f5 52 bd ee b8 a0 bc a2 a5 ee 3c 19 5e 45 3c
       -0.05150354 -0.019619431 0.029131714 0.01204636
000030 43 96 82 bb 67 49 f1 38 16 e9 23 3d 78 d3 d3 bb
       -0.0039851977 0.00011505448 0.04001721 -0.006464418
000040 0b d2 8a bc 9a e2 d8 3a
       -0.01694586 0.0016547025

net.network.0.net.3.bias f4 [3]
000000 f8 1e 61 bd 2b b3 88 be 68 34 4b bc
       -0.054961175 -0.26699194 -0.012402631

net.network.1.dconv1.weight f4 [80, 3, 2]
000000 39 01 c4 bb 0b dc 82 bb fe f2 6c 3b 83 e1 ed bc
       -0.005981591 -0.0039935163 0.0036155577 -0.029038196
000010 d0 86 13 3c 97 42 1c 3c a4 53 af bb 7a 89 da ba
       0.00900431 0.009537361 -0.005350547 -0.0016673051
000020 fa 50 81 bc e8 4e cf bc bb f9 22 3b 87 95 2f 3c
       -0.015785683 -0.02530618 0.002486809 0.010716802
000030 bc 1d a5 bb fb e5 2a bb 42 93 84 bc ad fd 42 bc
       -0.005038945 -0.002607702 -0.0161835 -0.011901301
000040 86 ec 9e 3c 6b bf ff 3b f3 9e b5 bb 9a 5a 6c bb
       0.019399893 0.007804801 -0.00554263 -0.0036064745
000050 d8 de 0b bc fc 80 50 3c 9d 7f 4e bc 36 f1 0e bb
       -0.008537017 0.012726065 -0.012603668 -0.0021811253
000060 de 6f 6e bc 6c 5e c2 bc d2 dd 2c bc 7f 39 94 bc
       -0.014553038 -0.023726664 -0.010550933 -0.018093823
000070 e8 5f 9f 3b a3 0f ab bc 28 2d 2b 3c c8 ff 10 bc
       0.004863728 -0.02088148 0.010447778 -0.0088500455
000080 48 80 d0 bb 00 bf c7 3c 48 59 d0 3b 37 99 44 bc
       -0.0063629486 0.024383068 0.0063582994 -0.01199942
000090 b3 a4 1b 3b c0 31 4e 3c cb bc 83 3b 03 e9 82 bc
       0.0023749291 0.0125851035 0.0040203086 -0.01598025
0000a0 c4 84 df 3b 1e e0 7a 3c 18 96 73 bc 64 d9 d4 3b
       0.006821247 0.015312223 -0.014867328 0.0064956415
0000b0 1a db b9 bc 69 86 b5 3c db 97 9b 3c 25 f8 c2 bb
       -0.022687484 0.022158818 0.018993309 -0.0059499913
0000c0 b1 dc 6a 3b 86 ce 74 bb 1d 50 3e 3c 50 be 48 3c
       0.0035837109 -0.0037354543 0.01161578 0.012252405
0000d0 01 7c 11 3b d7 69 76 bb 96 63 68 bb 6a 18 6d bc
       0.0022199156 -0.0037599707 -0.0035459748 -0.014471153
0000e0 38 ae 39 bb 90 c5 82 3c 28 a8 b7 3a 89 e5 1d bc
       -0.0028332602 0.015963346 0.0014011906 -0.009637245
0000f0 c2 f9 e8 3b 9e 33 37 bb 02 17 4c 3c 30 b1 30 3c
       0.0071098516 -0.002795435 0.012456657 0.010784432
000100 49 34 8b bb fe e4 8e bb 38 19 97 bc bd 63 a8 bc
       -0.0042481762 -0.004360794 -0.018444642 -0.020555371
000110 2d c9 80 bb 60 41 da bc 8e 01 71 3b 3f 78 9a bc
       -0.003930232 -0.026642501 0.0036774608 -0.018856166
000120 e6 e8 75 3c 9b db 90 3b a4 2e 29 3c ae 55 b2 3c
       0.015009141 0.0044207103 0.010326061 0.02176937
000130 30 cf ed 3b d6 c9 fd 3b 82 c2 42 3c 6f 2e fa bb
       0.0072573647 0.007745008 0.011887195 -0.00763493
000140 a8 9a 46 ba 16 82 c4 3c 47 8b 9b 3c 5a cc 63 bc
       -0.0007576146 0.023987811 0.018987311 -0.013903702
000150 08 28 9b bb 87 6b 88 bb d2 26 19 ba d6 e9 c7 bc
       -0.0047349967 -0.004163209 -0.00058422715 -0.024403494
000160 ca e1 5a 3c 58 fc b1 ba 01 36 85 bc 7d 82 c7 bc
       0.013359496 -0.0013579233 -0.016261103 -0.024354214
000170 2b 95 68 bc f9 68 25 bd 6c ed 6b bb a7 cc 8b bc
       -0.014195721 -0.040383313 -0.0035999669 -0.01706536
000180 93 1c 53 3c 81 45 ee bb d2 f8 06 3c de bb c2 3b
       0.012885231 -0.007271469 0.008238034 0.0059428057
000190 c9 65 25 bb ae 3e 13 bc 7c 30 be 3a 61 85 94 3b
       -0.002523767 -0.008987112 0.0014510299 0.0045325016
0001a0 1f 08 1a bc d2 41 c6 bc 8e a5 e5 3a fc a1 5d 3c
       -0.00940135 -0.024201307 0.0017520653 0.01352739
0001b0 30 94 8f 3a c0 46 49 bc 0e ad 9b 39 bc 5d 9c 3c
       0.0010954197 -0.0122849345 0.0002969284 0.019087665
0001c0 f7 bb dc b9 c7 c9 90 bc 86 f1 dc bb 53 11 9e bc
       -0.00042101715 -0.01767434 -0.006742659 -0.01929537
0001d0 20 4c 97 3b 87 0c 2d 3c e0 4f 09 3c b4 79 6d bc
       0.004617229 0.010562069 0.00838086 -0.014494348
0001e0 7d 6c 8a ba 0d a9 2b 3c a0 5e 43 bb cb 36 d1 bc
       -0.0010560896 0.010477317 -0.002981104 -0.025538823
0001f0 c6 71 57 3c cd c7 fd 3b eb 26 2b 3c 88 12 02 bc
       0.013149684 0.0077447654 0.0104462905 -0.0079389885
000200 8e 6c d1 3b 8e 5f a2 3c 0d 5b 91 3b cd 75 25 bc
       0.0063911146 0.019820955 0.004435903 -0.010098887
000210 85 2d e8 bc cf 5c bb bc 6b 79 c6 bc 7d fe ba bc
       -0.028342018 -0.022871403 -0.024227818 -0.022826428
000220 f2 ba 91 bb ef 6e 9f bc 1d 5a 1b 3c c3 49 91 bb
       -0.0044473344 -0.019462077 0.009481934 -0.004433842
000230 85 25 e0 3b 0f fe 9f 3c 8d 45 e0 ba d8 6a e5 ba
       0.00684041 0.019530324 -0.0017110571 -0.0017503155
000240 51 be 91 3c b5 28 b2 3b de dd f9 3b 27 84 40 3c
       0.017790945 0.0054369816 0.0076253256 0.011750258
000250 cc d6 65 3c 5e c2 7e 3c 7c b5 c3 bc 7e 3b e9 bc
       0.014028262 0.01554927 -0.02389025 -0.02847075
000260 e3 ab 48 bc e2 f2 bc bc 54 63 da 3b dd 76 ae bc
       -0.012248012 -0.023065034 0.006664673 -0.021296913
000270 1c c1 5f 3c 3e 4b af 3b a0 5c 80 3c 3e 76 c8 3c
       0.013656881 0.0053495457 0.015669167 0.024470445
000280 11 fe 1a 3c 59 5b a9 3b bd 9a 33 3c d1 9d 07 3b
       0.009459988 0.00516836 0.010962185 0.002069343
000290 41 88 40 3c fe b8 b6 3c 67 1a 5e 3c 7d 47 08 3b
       0.011751235 0.022305008 0.0135560995 0.0020794563
0002a0 f2 e4 1b 3c e7 15 7c bc 37 09 f3 ba 86 e7 b0 3c
       0.009515034 -0.015386081 -0.0018542175 0.021594774
0002b0 eb f8 3f 3c 64 6a a0 bc ee 36 8d 3c fe 1d 80 3b
       0.0117170615 -0.019581981 0.017238107 0.0039098253
0002c0 9e 75 fe 3b 6c 1c cd 3c 78 9b 5b 3c ed 4c ad 3a
       0.007765486 0.025037967 0.013403766 0.0013221778
0002d0 c1 00 6d bc e3 42 4d bc 20 98 8a bc d6 ef 21 bd
       -0.014465512 -0.012528154 -0.016918242 -0.039535366
0002e0 7e 49 63 3b c0 83 16 bc 3c 69 4c 3b 36 23 5d bc
       0.0034681256 -0.009186685 0.0031190654 -0.0134971645
0002f0 dd 10 c1 39 25 fb 83 3c 28 14 b2 bb c6 0d 72 bb
       0.00036824393 0.016110966 -0.0054345317 -0.003693448
000300 8b 9d 86 bc 98 e0 b0 bc 0a 7c 3e bc 37 d9 03 bd
       -0.016432544 -0.02159147 -0.011626253 -0.032189574
000310 ba c4 0c 3c 47 79 9b bc 10 d6 12 bb 99 f6 85 3b
       0.008591825 -0.018978728 -0.0022405423 0.0040882346
000320 46 96 93 bc 4c af 8e bc fc 11 46 3c 6b ac 31 3c
       -0.018015992 -0.017417572 0.012089249 0.01084433
000330 89 9f a3 ba 25 c7 e6 bb c3 27 86 bb 72 f5 a0 3c
       -0.0012483458 -0.007042783 -0.0040940954 0.019648287
000340 b0 4e 26 3a 3d 1a 64 bc 54 42 5d bc 9a 12 b1 bc
       0.0006344123 -0.013922271 -0.013504583 -0.021615315
000350 12 1e a3 bc 3e 98 24 bd 54 e0 89 bb 21 a1 67 bc
       -0.0199118 -0.040184252 -0.00420765 -0.014137537
000360 24 ca 99 3c 87 1b 81 3a 1b c1 74 bb be 22 d8 3c
       0.018773146 0.0009850123 -0.0037346545 0.026383754
000370 21 53 c7 3b 45 a1 1d bc be 8c 1c 3c d8 42 45 3b
       0.006082908 -0.009620969 0.00955504 0.0030099656
000380 0c 36 9b 3c bd fe 0d 3c e3 d6 a8 bb 22 47 56 3c
       0.01894667 0.008666691 -0.0051525696 0.013078483
000390 5c de 8b bb 4a d8 c7 bb b2 be 4d bc 76 b9 51 3c
       -0.0042684507 -0.0060987817 -0.012557672 0.012800565
0003a0 43 66 3c bc a5 d5 58 bc 4d a4 25 bc 29 33 f9 b7
       -0.0114989905 -0.013234531 -0.010109973 -2.9706936e-05
0003b0 99 0b d8 bb 3e d1 b3 bc 67 2e 97 bb 0e a5 45 3c
       -0.0065931794 -0.02195036 -0.004613686 0.012063278
0003c0 3f 38 10 3c 8b f7 64 3a b5 89 98 3c ea 76 5b 3c
       0.008802473 0.00087343965 0.018620351 0.013395051
0003d0 a4 9f 18 bb c2 d4 27 3c 9f 9a 73 bc e5 c8 4e bc
       -0.0023288513 0.0102435965 -0.0148684075 -0.012621139
0003e0 1e 9d 05 bb bc bb 48 3c 92 d8 31 bc 5e 8d b0 bb
       -0.0020387839 0.012251791 -0.010854857 -0.005387946
0003f0 d7 16 95 bb bb ce a0 ba 77 f4 dc 3b a7 7e ad bc
       -0.004549842 -0.0012268642 0.0067430097 -0.021178557

net.network.1.dconv1.bias f4 [80]
000000 e0 90 1a 3e b4 9d 1e 3e 45 ed 03 3d ed 61 09 bd
       0.15094328 0.15489846 0.0322087 -0.033540655
000010 98 06 8d 3e 9b f1 57 be e4 58 92 bd b3 37 e3 bd
       0.27544093 -0.21088259 -0.07145861 -0.11094608
000020 62 f3 ff bd a5 eb 95 bd 51 af e7 bd 34 32 a5 3e
       -0.124975935 -0.07320336 -0.11312736 0.32264864
000030 96 01 a2 be b6 6a 8d be 84 15 0b 3e 4c 49 bc 3e
       -0.31641835 -0.27620476 0.13582426 0.3677467
000040 9d d2 ae bd 82 9c c5 3d ab c4 f6 bd 9f 6b 74 bd
       -0.08536265 0.09648992 -0.1204923 -0.059672948
000050 c3 12 a0 3d 7f 40 4d be ae 21 be 3e 3d 49 2c be
       0.078160785 -0.20044135 0.3713507 -0.16824813
000060 9f 73 75 be 8a f0 b7 3e 50 d6 c5 be 2f 04 b2 be
       -0.23969887 0.35925704 -0.3864007 -0.34768817
000070 60 7f 5c be b8 6a bd be 4f be 97 3e 9e 2c a3 bd
       -0.21532965 -0.36995482 0.2963738 -0.079674944
000080 62 12 a3 3e 8c c9 84 3d 4f e3 f4 bd 92 25 b1 3e
       0.31849962 0.064837545 -0.11957418 0.34598976
000090 a6 bd 94 be 49 4e 61 be c4 de 1b 3b 65 0f 0c 3e
       -0.2905094 -0.2200252 0.0023783902 0.13677748
0000a0 ff 24 57 be 4b a4 82 bc d8 d2 dd 3d e3 de 79 3e
       -0.21010207 -0.015947482 0.10831231 0.24401431
0000b0 6a 09 b2 be c8 0c d7 3d 33 1d cb bc eb dc b2 bd
       -0.34772807 0.10500485 -0.024794197 -0.08733543
0000c0 00 85 c3 3e 0e d6 ff bc 79 98 a0 3e 3d 37 80 3e
       0.38187408 -0.031229999 0.31366327 0.25042143
0000d0 e0 75 52 3d 4e 0b 3f be 8f 01 d3 3d 5f e9 f8 bd
       0.051381946 -0.18656656 0.10303032 -0.12153887
0000e0 7f 9c f6 3d 52 d6 86 bd 76 4a 2c 3e 7e fd 94 3e
       0.12041568 -0.06583847 0.1682528 0.2909965
0000f0 c9 e8 36 bd 8d f6 c7 be 53 06 0d be 75 c4 eb bc
       -0.044655595 -0.3905529 -0.13771944 -0.028780201
000100 f4 21 18 bd ca 74 98 3e 6a f1 a3 3e f3 01 75 3b
       -0.037141755 0.29776603 0.32020122 0.0037385195
000110 5a b5 87 be a4 c4 aa 3d 4d fc 0c 3e ee 71 c6 be
       -0.26505548 0.083382875 0.1376812 -0.38758796
000120 84 94 b9 3c d4 0b 9f be 8f cb 40 bc c5 59 be be
       0.022653826 -0.31063712 -0.011767282 -0.37177864
000130 bb c7 f2 bd cd d5 a4 3e 3d 2c 82 be 35 b9 26 3e
       -0.11854502 0.32194367 -0.25424376 0.16281588

net.network.1.dconv2.weight f4 [80, 80, 2]
000000 7b 4f 30 bb 92 ac 57 bb 3c e0 5f bb 13 06 c6 bb
       -0.0026902843 -0.0032909256 -0.0034160754 -0.0060432046
000010 b4 e4 e7 b9 ef 92 1d bc 9a 75 76 3b 80 0a 37 3a
       -0.0004423015 -0.009617551 0.0037606717 0.00069824606
000020 a5 10 67 ba cc 40 6b bb 00 69 97 3b 1b 97 40 3c
       -0.0008814431 -0.0035896776 0.0046206713 0.011754776
000030 f8 44 e1 ba 1d 02 f4 bb 46 42 08 3c 8f d3 6d bb
       -0.0017186692 -0.007446541 0.008316582 -0.0036289429
000040 2a cb 7a 3b d6 85 23 3c ef 76 ad 3b b3 64 11 3c
       0.0038268068 0.009980639 0.005293719 0.008874106
000050 b2 57 bb 3b 4c fc 3e 3c 5f 77 68 b9 09 24 bc bb
       0.005717241 0.011656832 -0.00022169713 -0.0057416004
000060 7c 88 82 3b 53 2a 42 3c 48 8a ab 3b d1 90 1a 3c
       0.0039835554 0.011850911 0.0052349903 0.009433941
000070 dd 90 2f ba cd 7a dc bb 61 ac 5d ba bd a0 a3 bb
       -0.00066973065 -0.006728506 -0.00084561674 -0.0049935267
000080 d0 ec 5e 3b 8a 81 01 3c 42 39 2c ba fe f6 04 bc
       0.0034015663 0.00790442 -0.00065698114 -0.008115528
000090 17 66 61 3b f0 50 10 3c 30 6f b1 3b 8d dc 81 3b
       0.0034393126 0.0088083595 0.005414866 0.0039630593
0000a0 e2 fa ab 36 2b 58 e9 bb e7 59 bf 3b c6 d5 56 3c
       5.1254037e-06 -0.007121106 0.0058395746 0.013112491
0000b0 b7 73 01 b9 11 35 8a bb 58 07 97 3b 87 b3 52 3c
       -0.00012345506 -0.004217752 0.0046090297 0.0128601855
0000c0 29 cb 53 3b 07 03 45 3c e6 7e a4 3a f1 3a cc bb
       0.0032317138 0.012024648 0.0012550026 -0.0062326123
0000d0 06 75 ad 3b 41 29 2b 3c 17 22 a8 3b 5b 03 26 3c
       0.0052934913 0.010446847 0.005131017 0.010132636
0000e0 bb b0 4f 3b 76 dc 13 3c 21 6b 9f 3b 7d a1 05 3c
       0.0031691033 0.00902473 0.0048650657 0.008156178
0000f0 47 16 16 bb ef bf 07 bc dd 04 c8 3b 3e f9 27 3c
       -0.0022901462 -0.008285507 0.0061040954 0.010252295
000100 eb 79 1f ba f0 d9 db bb e5 1c 0b bb 5c 14 1c bc
       -0.0006083536 -0.00670933 -0.002122694 -0.009526338
000110 63 6a dd 3b d6 ee ed 3b d1 16 14 bb 69 92 bd bb
       0.006757067 0.0072611375 -0.0022596607 -0.0057852757
000120 26 b2 aa 3b ee e4 33 3c 4e ee 88 3b 7b fe 2d 3c
       0.005209225 0.010979874 0.0041787988 0.010619755
000130 f8 35 86 3b 9f b1 1a 3a e5 35 56 bb 44 18 8d bb
       0.004095789 0.00059011014 -0.0032685932 -0.004305871
000140 26 db 96 3b 36 ae 36 3c 86 9a 4f 3b 2f af 94 3b
       0.0046037612 0.011149934 0.0031677797 0.004537485
000150 52 7b b3 39 a9 28 b4 bb 7c 73 96 b9 70 95 10 bc
       0.0003423342 -0.005498011 -0.00028696272 -0.008824691
000160 38 6b f8 3b 9b 3c 41 3c dc da e6 ba a0 8b a7 bb
       0.007581141 0.011794235 -0.0017612833 -0.00511308
000170 67 62 9d 3b 14 08 e5 ba db 18 be 3b b6 ab 03 3c
       0.0048029902 -0.0017473721 0.005801303 0.008036545
000180 9c 16 63 ba a6 d0 df bb 7f bd 20 38 4a ae a7 bb
       -0.0008662732 -0.0068302928 3.8323455e-05 -0.0051172124
000190 91 aa 1f 3b 82 08 e2 bb a5 3a 67 b8 fd 71 c5 bb
       0.002436314 -0.006897987 -5.512931e-05 -0.0060255514
0001a0 df 72 89 3a b1 ce ba ba da ba a8 3b 65 f5 cc 3b
       0.0010486505 -0.0014252273 0.0051492276 0.0062548392
0001b0 94 60 82 ba db 43 2c bc 92 13 9f 3b 39 e5 1e 3c
       -0.0009946995 -0.010514225 0.004854628 0.009698206
0001c0 5e f7 a1 ba d5 be 6e bb a0 26 83 3b d4 1c b1 ba
       -0.0012357046 -0.0036429663 0.004002407 -0.001351262
0001d0 d3 f7 28 ba b8 59 a0 bb ae 27 03 bb 5f d4 ec bb
       -0.000644562 -0.004893508 -0.0020012665 -0.007227465
0001e0 19 a8 cb 3a f8 8e 09 3b 29 60 94 3b f8 77 50 3c
       0.0015537768 0.0020989757 0.0045280647 0.012723915
0001f0 63 94 1e 3c 0e 6f 1f ba 41 76 b5 3a 02 83 d8 ba
       0.009678933 -0.0006081917 0.0013844447 -0.0016518536
000200 d3 dd 7a 3b b1 ce 40 3b 51 19 1d ba b7 82 e9 bb
       0.003827919 0.0029420073 -0.0005992847 -0.007126178
000210 2f bd a5 3b 0b bd fb bb 07 b2 e0 ba 8c 5c 25 bc
       0.005057953 -0.007682448 -0.00171429 -0.010092866
000220 87 35 e3 3b 20 2b 30 3c c4 31 73 bb 52 42 8b bb
       0.006933871 0.010752469 -0.003710852 -0.0042498494
000230 1a dd 73 bb eb 43 a6 bb c1 26 2f 3b f3 8b 6a 3c
       -0.0037210644 -0.0050740144 0.002672598 0.014315593
000240 e2 8a e0 ba 20 f9 40 bc 83 62 9f 3b 0f c0 4a 3c
       -0.0017131234 -0.011778146 0.0048640384 0.012374892
000250 1e d5 55 ba 89 f8 c8 bb 8b f7 fe 3b 1f 4b 3c 3c
       -0.0008157062 -0.0061331433 0.0077809743 0.01149252
000260 d2 4e fe 3b bc 08 2f 3c c4 73 ba ba a6 c2 10 bc
       0.007760861 0.010683235 -0.0014225175 -0.00883547
000270 93 0d 07 3b 38 e5 20 3c d3 c3 8d ba a9 9a 2c bb
       0.0020607456 0.009820275 -0.0010815806 -0.0026337302
000280 a0 25 93 3b 34 84 89 bc ae e0 59 3b 44 7a 8f bc
       0.0044905692 -0.016786672 0.0033245492 -0.017514355
000290 0c d3 1d ba a8 50 e3 bc df 77 4f 3b 47 4e 9a 3b
       -0.0006020523 -0.02774842 0.0031657142 0.0047090384
0002a0 43 e6 9f 3b ae 29 f9 bb bd 4c fc 3a 84 b8 4b 3b
       0.0048797443 -0.0076038456 0.0019248944 0.0031085322
0002b0 e7 a4 23 bc 69 6f 93 bb 27 46 25 3c 06 b1 04 bc
       -0.009988046 -0.004499365 0.010087526 -0.008098846
0002c0 89 e1 67 3b ef a4 25 3c ad 5c 99 3c 6d 15 be b9
       0.0035382232 0.010110124 0.018720949 -0.00036255587
0002d0 1b 2d 6d 3c 54 a1 e3 3b cb 6f e7 3b 06 7a 11 bc
       0.014476086 0.006946722 0.0070628873 -0.00887919
0002e0 59 54 bb 3a ac 75 d5 3b 49 39 94 3b 00 3f 66 bb
       0.0014292105 0.0065142717 0.0045234305 -0.0035132766
0002f0 b9 c2 8c 3b ae d0 92 bc 85 52 ae 3b 0f 09 43 bc
       0.0042956737 -0.017921772 0.0053198957 -0.011904015
000300 3d 62 4d 3c 04 a1 8a 3b 69 e3 c2 bb 66 91 a2 bc
       0.012535629 0.0042306203 -0.0059475196 -0.019844722
000310 92 de 06 3c 02 e2 a4 bb 93 bd 3a 3c ba 35 85 39
       0.008231776 -0.005031825 0.011397737 0.00025407766
000320 e7 a1 05 39 90 fa c0 bc bd a9 bb 3b fc 8a cd 3a
       0.00012744182 -0.023556978 0.0057270215 0.0015681679
000330 8f b4 2e 3b 5f 1e a0 bb 5c 47 ed 3b be 7b d2 3b
       0.0026657914 -0.004886433 0.0072411727 0.0064234426
000340 40 b7 2e bc dd f7 90 3c 90 43 c6 3b cf a6 53 bc
       -0.010663807 0.017696315 0.0060505345 -0.012918188
000350 03 24 1b bb 54 9b b0 3b a5 7e 26 3a 74 7a ac 3b
       -0.0023672588 0.0053896103 0.0006351269 0.005263621
000360 d2 44 0b bb 50 a8 c6 ba e5 85 12 bc 53 f0 34 3b
       -0.0021250737 -0.0015156362 -0.008943056 0.0027609065
000370 ab 7e d3 3b 89 54 a3 bc de c0 5b 3c 54 e8 84 ba
       0.006454309 -0.01993777 0.013412682 -0.001014004
000380 3e 8e 2d 3b e0 65 67 bc e6 0b 61 3a a3 a9 db bc
       0.0026482488 -0.01412341 0.0008584842 -0.026814288
000390 f0 37 c1 3b ab 61 10 3c 9d fd f1 3b 06 53 71 bc
       0.005896561 0.008812348 0.0073849694 -0.014729267
0003a0 11 89 8f bb c5 ee 55 3b 26 70 8f 3a e9 9e 2a 3c
       -0.0043803533 0.0032643538 0.0010943457 0.010413864
0003b0 59 b6 2d 3b 03 16 50 3b 83 e4 3a 3b 36 ab 3c bc
       0.0026506393 0.0031751401 0.0028517551 -0.011515429
0003c0 fe e5 3b 39 89 a5 ff 3b 43 60 5c 3c e0 7a f8 b9
       0.00017919388 0.0078017158 0.013450685 -0.00047393795
0003d0 5e 10 c1 3b eb cc 71 bc dc 75 15 3c f7 de 9c bc
       0.0058918437 -0.014758329 0.009122338 -0.019149287
0003e0 3d 29 ea bb 88 3d e7 3b 4d 91 8a 3b ad b3 9b bc
       -0.0071460293 0.0070568956 0.004228747 -0.019006575
0003f0 37 95 cb 3b 3b cc 8b 3b b5 61 2a 3c ea 67 c7 ba
       0.006212856 0.0042662895 0.010399272 -0.0015213464

net.network.1.dconv2.bias f4 [80]
000000 76 d3 2e bd 7d 98 33 ba 7c b8 7e bd e0 a8 60 3d
       -0.042682134 -0.00068510306 -0.062187657 0.05484855
000010 d4 96 7d bc 7b d9 aa 3c 54 e0 15 3c b8 3d bd bc
       -0.015477855 0.020855656 0.009147722 -0.023100719
000020 d4 0e df bc e3 30 82 bd 48 84 53 bb f5 3c a4 bb
       -0.02722875 -0.06356981 -0.003227489 -0.0050121495
000030 77 85 49 bd a2 ab c4 bc 2e bd 21 bd 69 c1 fc 3c
       -0.049199548 -0.024007622 -0.039487056 0.030853944
000040 aa 78 14 3d 9f c3 a2 bc 0c 7a 47 bd 38 31 7e 3d
       0.036247887 -0.01986867 -0.048700377 0.062058657
000050 de ac c1 bc 3d dd d5 bc 63 28 09 bd 70 e8 43 bb
       -0.023642 -0.026106471 -0.03348578 -0.0029893182
000060 ba 32 83 3d 0e d3 9e bc 13 70 4b bd 13 88 5f bd
       0.0640616 -0.019387748 -0.04966743 -0.05457313
000070 10 a7 43 bd 46 19 89 bd 7d a9 76 bd cb e9 3f 3d
       -0.047766745 -0.06694274 -0.06022023 0.04685382
000080 26 51 21 bb 75 d0 ae bd 49 9a 99 bd f6 b6 11 3a
       -0.0024615019 -0.08535854 -0.07500131 0.00055585743
000090 75 b6 7f bd 0b 6e 80 3d 1c a2 ab 3d 63 f6 25 3d
       -0.062429864 0.06270989 0.08380529 0.040518176
0000a0 bb 39 85 bd a0 b9 f6 bb a4 00 26 3d e6 b7 92 bd
       -0.06505152 -0.0075294524 0.040527955 -0.07163982
0000b0 a7 13 8a 3d 02 bf 8c bc b0 4a cb 3c 3f cb 3b 3d
       0.0674203 -0.017180923 0.024815887 0.045848127
0000c0 b8 12 01 bc 42 c7 f0 bc d3 6c 22 bc 6c 58 8f bd
       -0.007877998 -0.029391889 -0.009913641 -0.06999287
0000d0 66 d5 6d bd a7 5a d6 bc 5f d8 e1 bc 55 d3 1d bd
       -0.05806484 -0.026166273 -0.027568994 -0.03853162
0000e0 0d d8 b4 3c 34 8f 4e bd b6 f5 45 bd a2 3a 33 3c
       0.022075677 -0.050429538 -0.04833003 0.010939272
0000f0 f7 3d 72 bd 64 ab a5 3d 80 bd 47 bd a8 59 22 bc
       -0.059141126 0.08089331 -0.048764706 -0.009909071
000100 60 83 0c bd ef 12 f0 bc 15 7d 97 bd 68 06 e7 bb
       -0.034304976 -0.029305903 -0.073969044 -0.007050324
000110 59 e9 f5 bc 9e 0a 66 3c 6e dc 80 3d c5 cd 2b bc
       -0.030018495 0.014040617 0.062920436 -0.010486071
000120 3b 05 6a bd da 79 30 bd 17 81 f3 3b 44 8d ab 3c
       -0.057133894 -0.043084957 0.00743116 0.020941384
000130 23 17 94 bd fc c6 82 3d 80 39 63 3c 6f 3f b8 3c
       -0.072309755 0.063856095 0.01386869 0.022491185

net.network.1.net.0.weight f4 [80, 3, 2]
000000 39 01 c4 bb 0b dc 82 bb fe f2 6c 3b 83 e1 ed bc
       -0.005981591 -0.0039935163 0.0036155577 -0.029038196
000010 d0 86 13 3c 97 42 1c 3c a4 53 af bb 7a 89 da ba
       0.00900431 0.009537361 -0.005350547 -0.0016673051
000020 fa 50 81 bc e8 4e cf bc bb f9 22 3b 87 95 2f 3c
       -0.015785683 -0.02530618 0.002486809 0.010716802
000030 bc 1d a5 bb fb e5 2a bb 42 93 84 bc ad fd 42 bc
       -0.005038945 -0.002607702 -0.0161835 -0.011901301
000040 86 ec 9e 3c 6b bf ff 3b f3 9e b5 bb 9a 5a 6c bb
       0.019399893 0.007804801 -0.00554263 -0.0036064745
000050 d8 de 0b bc fc 80 50 3c 9d 7f 4e bc 36 f1 0e bb
       -0.008537017 0.012726065 -0.012603668 -0.0021811253
000060 de 6f 6e bc 6c 5e c2 bc d2 dd 2c bc 7f 39 94 bc
       -0.014553038 -0.023726664 -0.010550933 -0.018093823
000070 e8 5f 9f 3b a3 0f ab bc 28 2d 2b 3c c8 ff 10 bc
       0.004863728 -0.02088148 0.010447778 -0.0088500455
000080 48 80 d0 bb 00 bf c7 3c 48 59 d0 3b 37 99 44 bc
       -0.0063629486 0.024383068 0.0063582994 -0.01199942
000090 b3 a4 1b 3b c0 31 4e 3c cb bc 83 3b 03 e9 82 bc
       0.0023749291 0.0125851035 0.0040203086 -0.01598025
0000a0 c4 84 df 3b 1e e0 7a 3c 18 96 73 bc 64 d9 d4 3b
       0.006821247 0.015312223 -0.014867328 0.0064956415
0000b0 1a db b9 bc 69 86 b5 3c db 97 9b 3c 25 f8 c2 bb
       -0.022687484 0.022158818 0.018993309 -0.0059499913
0000c0 b1 dc 6a 3b 86 ce 74 bb 1d 50 3e 3c 50 be 48 3c
       0.0035837109 -0.0037354543 0.01161578 0.012252405
0000d0 01 7c 11 3b d7 69 76 bb 96 63 68 bb 6a 18 6d bc
       0.0022199156 -0.0037599707 -0.0035459748 -0.014471153
0000e0 38 ae 39 bb 90 c5 82 3c 28 a8 b7 3a 89 e5 1d bc
       -0.0028332602 0.015963346 0.0014011906 -0.009637245
0000f0 c2 f9 e8 3b 9e 33 37 bb 02 17 4c 3c 30 b1 30 3c
       0.0071098516 -0.002795435 0.012456657 0.010784432
000100 49 34 8b bb fe e4 8e bb 38 19 97 bc bd 63 a8 bc
       -0.0042481762 -0.004360794 -0.018444642 -0.020555371
000110 2d c9 80 bb 60 41 da bc 8e 01 71 3b 3f 78 9a bc
       -0.003930232 -0.026642501 0.0036774608 -0.018856166
000120 e6 e8 75 3c 9b db 90 3b a4 2e 29 3c ae 55 b2 3c
       0.015009141 0.0044207103 0.010326061 0.02176937
000130 30 cf ed 3b d6 c9 fd 3b 82 c2 42 3c 6f 2e fa bb
       0.0072573647 0.007745008 0.011887195 -0.00763493
000140 a8 9a 46 ba 16 82 c4 3c 47 8b 9b 3c 5a cc 63 bc
       -0.0007576146 0.023987811 0.018987311 -0.013903702
000150 08 28 9b bb 87 6b 88 bb d2 26 19 ba d6 e9 c7 bc
       -0.0047349967 -0.004163209 -0.00058422715 -0.024403494
000160 ca e1 5a 3c 58 fc b1 ba 01 36 85 bc 7d 82 c7 bc
       0.013359496 -0.0013579233 -0.016261103 -0.024354214
000170 2b 95 68 bc f9 68 25 bd 6c ed 6b bb a7 cc 8b bc
       -0.014195721 -0.040383313 -0.0035999669 -0.01706536
000180 93 1c 53 3c 81 45 ee bb d2 f8 06 3c de bb c2 3b
       0.012885231 -0.007271469 0.008238034 0.0059428057
000190 c9 65 25 bb ae 3e 13 bc 7c 30 be 3a 61 85 94 3b
       -0.002523767 -0.008987112 0.0014510299 0.0045325016
0001a0 1f 08 1a bc d2 41 c6 bc 8e a5 e5 3a fc a1 5d 3c
       -0.00940135 -0.024201307 0.0017520653 0.01352739
0001b0 30 94 8f 3a c0 46 49 bc 0e ad 9b 39 bc 5d 9c 3c
       0.0010954197 -0.0122849345 0.0002969284 0.019087665
0001c0 f7 bb dc b9 c7 c9 90 bc 86 f1 dc bb 53 11 9e bc
       -0.00042101715 -0.01767434 -0.006742659 -0.01929537
0001d0 20 4c 97 3b 87 0c 2d 3c e0 4f 09 3c b4 79 6d bc
       0.004617229 0.010562069 0.00838086 -0.014494348
0001e0 7d 6c 8a ba 0d a9 2b 3c a0 5e 43 bb cb 36 d1 bc
       -0.0010560896 0.010477317 -0.002981104 -0.025538823
0001f0 c6 71 57 3c cd c7 fd 3b eb 26 2b 3c 88 12 02 bc
       0.013149684 0.0077447654 0.0104462905 -0.0079389885
000200 8e 6c d1 3b 8e 5f a2 3c 0d 5b 91 3b cd 75 25 bc
       0.0063911146 0.019820955 0.004435903 -0.010098887
000210 85 2d e8 bc cf 5c bb bc 6b 79 c6 bc 7d fe ba bc
       -0.028342018 -0.022871403 -0.024227818 -0.022826428
000220 f2 ba 91 bb ef 6e 9f bc 1d 5a 1b 3c c3 49 91 bb
       -0.0044473344 -0.019462077 0.009481934 -0.004433842
000230 85 25 e0 3b 0f fe 9f 3c 8d 45 e0 ba d8 6a e5 ba
       0.00684041 0.019530324 -0.0017110571 -0.0017503155
000240 51 be 91 3c b5 28 b2 3b de dd f9 3b 27 84 40 3c
       0.017790945 0.0054369816 0.0076253256 0.011750258
000250 cc d6 65 3c 5e c2 7e 3c 7c b5 c3 bc 7e 3b e9 bc
       0.014028262 0.01554927 -0.02389025 -0.02847075
000260 e3 ab 48 bc e2 f2 bc bc 54 63 da 3b dd 76 ae bc
       -0.012248012 -0.023065034 0.006664673 -0.021296913
000270 1c c1 5f 3c 3e 4b af 3b a0 5c 80 3c 3e 76 c8 3c
       0.013656881 0.0053495457 0.015669167 0.024470445
000280 11 fe 1a 3c 59 5b a9 3b bd 9a 33 3c d1 9d 07 3b
       0.009459988 0.00516836 0.010962185 0.002069343
000290 41 88 40 3c fe b8 b6 3c 67 1a 5e 3c 7d 47 08 3b
       0.011751235 0.022305008 0.0135560995 0.0020794563
0002a0 f2 e4 1b 3c e7 15 7c bc 37 09 f3 ba 86 e7 b0 3c
       0.009515034 -0.015386081 -0.0018542175 0.021594774
0002b0 eb f8 3f 3c 64 6a a0 bc ee 36 8d 3c fe 1d 80 3b
       0.0117170615 -0.019581981 0.017238107 0.0039098253
0002c0 9e 75 fe 3b 6c 1c cd 3c 78 9b 5b 3c ed 4c ad 3a
       0.007765486 0.025037967 0.013403766 0.0013221778
0002d0 c1 00 6d bc e3 42 4d bc 20 98 8a bc d6 ef 21 bd
       -0.014465512 -0.012528154 -0.016918242 -0.039535366
0002e0 7e 49 63 3b c0 83 16 bc 3c 69 4c 3b 36 23 5d bc
       0.0034681256 -0.009186685 0.0031190654 -0.0134971645
0002f0 dd 10 c1 39 25 fb 83 3c 28 14 b2 bb c6 0d 72 bb
       0.00036824393 0.016110966 -0.0054345317 -0.003693448
000300 8b 9d 86 bc 98 e0 b0 bc 0a 7c 3e bc 37 d9 03 bd
       -0.016432544 -0.02159147 -0.011626253 -0.032189574
000310 ba c4 0c 3c 47 79 9b bc 10 d6 12 bb 99 f6 85 3b
       0.008591825 -0.018978728 -0.0022405423 0.0040882346
000320 46 96 93 bc 4c af 8e bc fc 11 46 3c 6b ac 31 3c
       -0.018015992 -0.017417572 0.012089249 0.01084433
000330 89 9f a3 ba 25 c7 e6 bb c3 27 86 bb 72 f5 a0 3c
       -0.0012483458 -0.007042783 -0.0040940954 0.019648287
000340 b0 4e 26 3a 3d 1a 64 bc 54 42 5d bc 9a 12 b1 bc
       0.0006344123 -0.013922271 -0.013504583 -0.021615315
000350 12 1e a3 bc 3e 98 24 bd 54 e0 89 bb 21 a1 67 bc
       -0.0199118 -0.040184252 -0.00420765 -0.014137537
000360 24 ca 99 3c 87 1b 81 3a 1b c1 74 bb be 22 d8 3c
       0.018773146 0.0009850123 -0.0037346545 0.026383754
000370 21 53 c7 3b 45 a1 1d bc be 8c 1c 3c d8 42 45 3b
       0.006082908 -0.009620969 0.00955504 0.0030099656
000380 0c 36 9b 3c bd fe 0d 3c e3 d6 a8 bb 22 47 56 3c
       0.01894667 0.008666691 -0.0051525696 0.013078483
000390 5c de 8b bb 4a d8 c7 bb b2 be 4d bc 76 b9 51 3c
       -0.0042684507 -0.0060987817 -0.012557672 0.012800565
0003a0 43 66 3c bc a5 d5 58 bc 4d a4 25 bc 29 33 f9 b7
       -0.0114989905 -0.013234531 -0.010109973 -2.9706936e-05
0003b0 99 0b d8 bb 3e d1 b3 bc 67 2e 97 bb 0e a5 45 3c
       -0.0065931794 -0.02195036 -0.004613686 0.012063278
0003c0 3f 38 10 3c 8b f7 64 3a b5 89 98 3c ea 76 5b 3c
       0.008802473 0.00087343965 0.018620351 0.013395051
0003d0 a4 9f 18 bb c2 d4 27 3c 9f 9a 73 bc e5 c8 4e bc
       -0.0023288513 0.0102435965 -0.0148684075 -0.012621139
0003e0 1e 9d 05 bb bc bb 48 3c 92 d8 31 bc 5e 8d b0 bb
       -0.0020387839 0.012251791 -0.010854857 -0.005387946
0003f0 d7 16 95 bb bb ce a0 ba 77 f4 dc 3b a7 7e ad bc
       -0.004549842 -0.0012268642 0.0067430097 -0.021178557

net.network.1.net.0.bias f4 [80]
000000 e0 90 1a 3e b4 9d 1e 3e 45 ed 03 3d ed 61 09 bd
       0.15094328 0.15489846 0.0322087 -0.033540655
000010 98 06 8d 3e 9b f1 57 be e4 58 92 bd b3 37 e3 bd
       0.27544093 -0.21088259 -0.07145861 -0.11094608
000020 62 f3 ff bd a5 eb 95 bd 51 af e7 bd 34 32 a5 3e
       -0.124975935 -0.07320336 -0.11312736 0.32264864
000030 96 01 a2 be b6 6a 8d be 84 15 0b 3e 4c 49 bc 3e
       -0.31641835 -0.27620476 0.13582426 0.3677467
000040 9d d2 ae bd 82 9c c5 3d ab c4 f6 bd 9f 6b 74 bd
       -0.08536265 0.09648992 -0.1204923 -0.059672948
000050 c3 12 a0 3d 7f 40 4d be ae 21 be 3e 3d 49 2c be
       0.078160785 -0.20044135 0.3713507 -0.16824813
000060 9f 73 75 be 8a f0 b7 3e 50 d6 c5 be 2f 04 b2 be
       -0.23969887 0.35925704 -0.3864007 -0.34768817
000070 60 7f 5c be b8 6a bd be 4f be 97 3e 9e 2c a3 bd
       -0.21532965 -0.36995482 0.2963738 -0.079674944
000080 62 12 a3 3e 8c c9 84 3d 4f e3 f4 bd 92 25 b1 3e
       0.31849962 0.064837545 -0.11957418 0.34598976
000090 a6 bd 94 be 49 4e 61 be c4 de 1b 3b 65 0f 0c 3e
       -0.2905094 -0.2200252 0.0023783902 0.13677748
0000a0 ff 24 57 be 4b a4 82 bc d8 d2 dd 3d e3 de 79 3e
       -0.21010207 -0.015947482 0.10831231 0.24401431
0000b0 6a 09 b2 be c8 0c d7 3d 33 1d cb bc eb dc b2 bd
       -0.34772807 0.10500485 -0.024794197 -0.08733543
0000c0 00 85 c3 3e 0e d6 ff bc 79 98 a0 3e 3d 37 80 3e
       0.38187408 -0.031229999 0.31366327 0.25042143
0000d0 e0 75 52 3d 4e 0b 3f be 8f 01 d3 3d 5f e9 f8 bd
       0.051381946 -0.18656656 0.10303032 -0.12153887
0000e0 7f 9c f6 3d 52 d6 86 bd 76 4a 2c 3e 7e fd 94 3e
       0.12041568 -0.06583847 0.1682528 0.2909965
0000f0 c9 e8 36 bd 8d f6 c7 be 53 06 0d be 75 c4 eb bc
       -0.044655595 -0.3905529 -0.13771944 -0.028780201
000100 f4 21 18 bd ca 74 98 3e 6a f1 a3 3e f3 01 75 3b
       -0.037141755 0.29776603 0.32020122 0.0037385195
000110 5a b5 87 be a4 c4 aa 3d 4d fc 0c 3e ee 71 c6 be
       -0.26505548 0.083382875 0.1376812 -0.38758796
000120 84 94 b9 3c d4 0b 9f be 8f cb 40 bc c5 59 be be
       0.022653826 -0.31063712 -0.011767282 -0.37177864
000130 bb c7 f2 bd cd d5 a4 3e 3d 2c 82 be 35 b9 26 3e
       -0.11854502 0.32194367 -0.25424376 0.16281588

net.network.1.net.3.weight f4 [80, 80, 2]
000000 7b 4f 30 bb 92 ac 57 bb 3c e0 5f bb 13 06 c6 bb
       -0.0026902843 -0.0032909256 -0.0034160754 -0.0060432046
000010 b4 e4 e7 b9 ef 92 1d bc 9a 75 76 3b 80 0a 37 3a
       -0.0004423015 -0.009617551 0.0037606717 0.00069824606
000020 a5 10 67 ba cc 40 6b bb 00 69 97 3b 1b 97 40 3c
       -0.0008814431 -0.0035896776 0.0046206713 0.011754776
000030 f8 44 e1 ba 1d 02 f4 bb 46 42 08 3c 8f d3 6d bb
       -0.0017186692 -0.007446541 0.008316582 -0.0036289429
000040 2a cb 7a 3b d6 85 23 3c ef 76 ad 3b b3 64 11 3c
       0.0038268068 0.009980639 0.005293719 0.008874106
000050 b2 57 bb 3b 4c fc 3e 3c 5f 77 68 b9 09 24 bc bb
       0.005717241 0.011656832 -0.00022169713 -0.0057416004
000060 7c 88 82 3b 53 2a 42 3c 48 8a ab 3b d1 90 1a 3c
       0.0039835554 0.011850911 0.0052349903 0.009433941
000070 dd 90 2f ba cd 7a dc bb 61 ac 5d ba bd a0 a3 bb
       -0.00066973065 -0.006728506 -0.00084561674 -0.0049935267
000080 d0 ec 5e 3b 8a 81 01 3c 42 39 2c ba fe f6 04 bc
       0.0034015663 0.00790442 -0.00065698114 -0.008115528
000090 17 66 61 3b f0 50 10 3c 30 6f b1 3b 8d dc 81 3b
       0.0034393126 0.0088083595 0.005414866 0.0039630593
0000a0 e2 fa ab 36 2b 58 e9 bb e7 59 bf 3b c6 d5 56 3c
       5.1254037e-06 -0.007121106 0.0058395746 0.013112491
0000b0 b7 73 01 b9 11 35 8a bb 58 07 97 3b 87 b3 52 3c
       -0.00012345506 -0.004217752 0.0046090297 0.0128601855
0000c0 29 cb 53 3b 07 03 45 3c e6 7e a4 3a f1 3a cc bb
       0.0032317138 0.012024648 0.0012550026 -0.0062326123
0000d0 06 75 ad 3b 41 29 2b 3c 17 22 a8 3b 5b 03 26 3c
       0.0052934913 0.010446847 0.005131017 0.010132636
0000e0 bb b0 4f 3b 76 dc 13 3c 21 6b 9f 3b 7d a1 05 3c
       0.0031691033 0.00902473 0.0048650657 0.008156178
0000f0 47 16 16 bb ef bf 07 bc dd 04 c8 3b 3e f9 27 3c
       -0.0022901462 -0.008285507 0.0061040954 0.010252295
000100 eb 79 1f ba f0 d9 db bb e5 1c 0b bb 5c 14 1c bc
       -0.0006083536 -0.00670933 -0.002122694 -0.009526338
000110 63 6a dd 3b d6 ee ed 3b d1 16 14 bb 69 92 bd bb
       0.006757067 0.0072611375 -0.0022596607 -0.0057852757
000120 26 b2 aa 3b ee e4 33 3c 4e ee 88 3b 7b fe 2d 3c
       0.005209225 0.010979874 0.0041787988 0.010619755
000130 f8 35 86 3b 9f b1 1a 3a e5 35 56 bb 44 18 8d bb
       0.004095789 0.00059011014 -0.0032685932 -0.004305871
000140 26 db 96 3b 36 ae 36 3c 86 9a 4f 3b 2f af 94 3b
       0.0046037612 0.011149934 0.0031677797 0.004537485
000150 52 7b b3 39 a9 28 b4 bb 7c 73 96 b9 70 95 10 bc
       0.0003423342 -0.005498011 -0.00028696272 -0.008824691
000160 38 6b f8 3b 9b 3c 41 3c dc da e6 ba a0 8b a7 bb
       0.007581141 0.011794235 -0.0017612833 -0.00511308
000170 67 62 9d 3b 14 08 e5 ba db 18 be 3b b6 ab 03 3c
       0.0048029902 -0.0017473721 0.005801303 0.008036545
000180 9c 16 63 ba a6 d0 df bb 7f bd 20 38 4a ae a7 bb
       -0.0008662732 -0.0068302928 3.8323455e-05 -0.0051172124
000190 91 aa 1f 3b 82 08 e2 bb a5 3a 67 b8 fd 71 c5 bb
       0.002436314 -0.006897987 -5.512931e-05 -0.0060255514
0001a0 df 72 89 3a b1 ce ba ba da ba a8 3b 65 f5 cc 3b
       0.0010486505 -0.0014252273 0.0051492276 0.0062548392
0001b0 94 60 82 ba db 43 2c bc 92 13 9f 3b 39 e5 1e 3c
       -0.0009946995 -0.010514225 0.004854628 0.009698206
0001c0 5e f7 a1 ba d5 be 6e bb a0 26 83 3b d4 1c b1 ba
       -0.0012357046 -0.0036429663 0.004002407 -0.001351262
0001d0 d3 f7 28 ba b8 59 a0 bb ae 27 03 bb 5f d4 ec bb
       -0.000644562 -0.004893508 -0.0020012665 -0.007227465
0001e0 19 a8 cb 3a f8 8e 09 3b 29 60 94 3b f8 77 50 3c
       0.0015537768 0.0020989757 0.0045280647 0.012723915
0001f0 63 94 1e 3c 0e 6f 1f ba 41 76 b5 3a 02 83 d8 ba
       0.009678933 -0.0006081917 0.0013844447 -0.0016518536
000200 d3 dd 7a 3b b1 ce 40 3b 51 19 1d ba b7 82 e9 bb
       0.003827919 0.0029420073 -0.0005992847 -0.007126178
000210 2f bd a5 3b 0b bd fb bb 07 b2 e0 ba 8c 5c 25 bc
       0.005057953 -0.007682448 -0.00171429 -0.010092866
000220 87 35 e3 3b 20 2b 30 3c c4 31 73 bb 52 42 8b bb
       0.006933871 0.010752469 -0.003710852 -0.0042498494
000230 1a dd 73 bb eb 43 a6 bb c1 26 2f 3b f3 8b 6a 3c
       -0.0037210644 -0.0050740144 0.002672598 0.014315593
000240 e2 8a e0 ba 20 f9 40 bc 83 62 9f 3b 0f c0 4a 3c
       -0.0017131234 -0.011778146 0.0048640384 0.012374892
000250 1e d5 55 ba 89 f8 c8 bb 8b f7 fe 3b 1f 4b 3c 3c
       -0.0008157062 -0.0061331433 0.0077809743 0.01149252
000260 d2 4e fe 3b bc 08 2f 3c c4 73 ba ba a6 c2 10 bc
       0.007760861 0.010683235 -0.0014225175 -0.00883547
000270 93 0d 07 3b 38 e5 20 3c d3 c3 8d ba a9 9a 2c bb
       0.0020607456 0.009820275 -0.0010815806 -0.0026337302
000280 a0 25 93 3b 34 84 89 bc ae e0 59 3b 44 7a 8f bc
       0.0044905692 -0.016786672 0.0033245492 -0.017514355
000290 0c d3 1d ba a8 50 e3 bc df 77 4f 3b 47 4e 9a 3b
       -0.0006020523 -0.02774842 0.0031657142 0.0047090384
0002a0 43 e6 9f 3b ae 29 f9 bb bd 4c fc 3a 84 b8 4b 3b
       0.0048797443 -0.0076038456 0.0019248944 0.0031085322
0002b0 e7 a4 23 bc 69 6f 93 bb 27 46 25 3c 06 b1 04 bc
       -0.009988046 -0.004499365 0.010087526 -0.008098846
0002c0 89 e1 67 3b ef a4 25 3c ad 5c 99 3c 6d 15 be b9
       0.0035382232 0.010110124 0.018720949 -0.00036255587
0002d0 1b 2d 6d 3c 54 a1 e3 3b cb 6f e7 3b 06 7a 11 bc
       0.014476086 0.006946722 0.0070628873 -0.00887919
0002e0 59 54 bb 3a ac 75 d5 3b 49 39 94 3b 00 3f 66 bb
       0.0014292105 0.0065142717 0.0045234305 -0.0035132766
0002f0 b9 c2 8c 3b ae d0 92 bc 85 52 ae 3b 0f 09 43 bc
       0.0042956737 -0.017921772 0.0053198957 -0.011904015
000300 3d 62 4d 3c 04 a1 8a 3b 69 e3 c2 bb 66 91 a2 bc
       0.012535629 0.0042306203 -0.0059475196 -0.019844722
000310 92 de 06 3c 02 e2 a4 bb 93 bd 3a 3c ba 35 85 39
       0.008231776 -0.005031825 0.011397737 0.00025407766
000320 e7 a1 05 39 90 fa c0 bc bd a9 bb 3b fc 8a cd 3a
       0.00012744182 -0.023556978 0.0057270215 0.0015681679
000330 8f b4 2e 3b 5f 1e a0 bb 5c 47 ed 3b be 7b d2 3b
       0.0026657914 -0.004886433 0.0072411727 0.0064234426
000340 40 b7 2e bc dd f7 90 3c 90 43 c6 3b cf a6 53 bc
       -0.010663807 0.017696315 0.0060505345 -0.012918188
000350 03 24 1b bb 54 9b b0 3b a5 7e 26 3a 74 7a ac 3b
       -0.0023672588 0.0053896103 0.0006351269 0.005263621
000360 d2 44 0b bb 50 a8 c6 ba e5 85 12 bc 53 f0 34 3b
       -0.0021250737 -0.0015156362 -0.008943056 0.0027609065
000370 ab 7e d3 3b 89 54 a3 bc de c0 5b 3c 54 e8 84 ba
       0.006454309 -0.01993777 0.013412682 -0.001014004
000380 3e 8e 2d 3b e0 65 67 bc e6 0b 61 3a a3 a9 db bc
       0.0026482488 -0.01412341 0.0008584842 -0.026814288
000390 f0 37 c1 3b ab 61 10 3c 9d fd f1 3b 06 53 71 bc
       0.005896561 0.008812348 0.0073849694 -0.014729267
0003a0 11 89 8f bb c5 ee 55 3b 26 70 8f 3a e9 9e 2a 3c
       -0.0043803533 0.0032643538 0.0010943457 0.010413864
0003b0 59 b6 2d 3b 03 16 50 3b 83 e4 3a 3b 36 ab 3c bc
       0.0026506393 0.0031751401 0.0028517551 -0.011515429
0003c0 fe e5 3b 39 89 a5 ff 3b 43 60 5c 3c e0 7a f8 b9
       0.00017919388 0.0078017158 0.013450685 -0.00047393795
0003d0 5e 10 c1 3b eb cc 71 bc dc 75 15 3c f7 de 9c bc
       0.0058918437 -0.014758329 0.009122338 -0.019149287
0003e0 3d 29 ea bb 88 3d e7 3b 4d 91 8a 3b ad b3 9b bc
       -0.0071460293 0.0070568956 0.004228747 -0.019006575
0003f0 37 95 cb 3b 3b cc 8b 3b b5 61 2a 3c ea 67 c7 ba
       0.006212856 0.0042662895 0.010399272 -0.0015213464

net.network.1.net.3.bias f4 [80]
000000 76 d3 2e bd 7d 98 33 ba 7c b8 7e bd e0 a8 60 3d
       -0.042682134 -0.00068510306 -0.062187657 0.05484855
000010 d4 96 7d bc 7b d9 aa 3c 54 e0 15 3c b8 3d bd bc
       -0.015477855 0.020855656 0.009147722 -0.023100719
000020 d4 0e df bc e3 30 82 bd 48 84 53 bb f5 3c a4 bb
       -0.02722875 -0.06356981 -0.003227489 -0.0050121495
000030 77 85 49 bd a2 ab c4 bc 2e bd 21 bd 69 c1 fc 3c
       -0.049199548 -0.024007622 -0.039487056 0.030853944
000040 aa 78 14 3d 9f c3 a2 bc 0c 7a 47 bd 38 31 7e 3d
       0.036247887 -0.01986867 -0.048700377 0.062058657
000050 de ac c1 bc 3d dd d5 bc 63 28 09 bd 70 e8 43 bb
       -0.023642 -0.026106471 -0.03348578 -0.0029893182
000060 ba 32 83 3d 0e d3 9e bc 13 70 4b bd 13 88 5f bd
       0.0640616 -0.019387748 -0.04966743 -0.05457313
000070 10 a7 43 bd 46 19 89 bd 7d a9 76 bd cb e9 3f 3d
       -0.047766745 -0.06694274 -0.06022023 0.04685382
000080 26 51 21 bb 75 d0 ae bd 49 9a 99 bd f6 b6 11 3a
       -0.0024615019 -0.08535854 -0.07500131 0.00055585743
000090 75 b6 7f bd 0b 6e 80 3d 1c a2 ab 3d 63 f6 25 3d
       -0.062429864 0.06270989 0.08380529 0.040518176
0000a0 bb 39 85 bd a0 b9 f6 bb a4 00 26 3d e6 b7 92 bd
       -0.06505152 -0.0075294524 0.040527955 -0.07163982
0000b0 a7 13 8a 3d 02 bf 8c bc b0 4a cb 3c 3f cb 3b 3d
       0.0674203 -0.017180923 0.024815887 0.045848127
0000c0 b8 12 01 bc 42 c7 f0 bc d3 6c 22 bc 6c 58 8f bd
       -0.007877998 -0.029391889 -0.009913641 -0.06999287
0000d0 66 d5 6d bd a7 5a d6 bc 5f d8 e1 bc 55 d3 1d bd
       -0.05806484 -0.026166273 -0.027568994 -0.03853162
0000e0 0d d8 b4 3c 34 8f 4e bd b6 f5 45 bd a2 3a 33 3c
       0.022075677 -0.050429538 -0.04833003 0.010939272
0000f0 f7 3d 72 bd 64 ab a5 3d 80 bd 47 bd a8 59 22 bc
       -0.059141126 0.08089331 -0.048764706 -0.009909071
000100 60 83 0c bd ef 12 f0 bc 15 7d 97 bd 68 06 e7 bb
       -0.034304976 -0.029305903 -0.073969044 -0.007050324
000110 59 e9 f5 bc 9e 0a 66 3c 6e dc 80 3d c5 cd 2b bc
       -0.030018495 0.014040617 0.062920436 -0.010486071
000120 3b 05 6a bd da 79 30 bd 17 81 f3 3b 44 8d ab 3c
       -0.057133894 -0.043084957 0.00743116 0.020941384
000130 23 17 94 bd fc c6 82 3d 80 39 63 3c 6f 3f b8 3c
       -0.072309755 0.063856095 0.01386869 0.022491185

net.network.1.downsample.weight f4 [80, 3, 1]
000000 44 36 b4 3b f6 37 13 ba ee 24 18 3c 49 26 f8 39
       0.005499633 -0.0005615944 0.0092861485 0.0004733077
000010 dc 8f 57 bb 2f 82 3d 3b 3f 4f 81 bc ca 3f d6 bc
       -0.0032892143 0.0028916707 -0.015784858 -0.026153464
000020 f7 07 84 bc 8f fe f7 bb 91 68 0b bc 82 ff 28 3c
       -0.01611708 -0.0075681875 -0.008508817 0.010314824
000030 a3 29 6f bc 69 bb ab bc ce 67 ae bb e1 c2 01 3b
       -0.014597329 -0.020963388 -0.005322433 0.0019799995
000040 aa f0 9c ba ee df 2e 3b e2 b4 58 3a b5 da 93 3a
       -0.0011973579 0.0026683765 0.00082667 0.001128039
000050 e1 52 36 3a b8 99 33 38 94 8e 89 3b b0 78 64 bb
       0.0006955099 4.2820087e-05 0.004197905 -0.0034861974
000060 d0 04 3f bc 2d 3e fd bb 7b cc f1 bb f3 b6 21 bc
       -0.011658862 -0.007728359 -0.0073791123 -0.009870279
000070 dc 02 05 bd 3f 9f ae bb 08 08 f8 bb 0a 06 94 bb
       -0.03247343 -0.005329042 -0.007569317 -0.0045173215
000080 f1 5f 70 3c 04 06 5c 3a 40 b1 bc bb f1 30 8f 3a
       0.014671312 0.00083932304 -0.0057584345 0.001092462
000090 1b 26 55 3a c3 1a a1 bb ca 75 b5 3b 8d 5a 80 bc
       0.00081309833 -0.0049165203 0.005537723 -0.015668178
0000a0 84 e0 e9 3b f4 3b 86 bc 1a 03 15 3b 71 6a 07 bb
       0.00713736 -0.01638601 0.0022737444 -0.002066281
0000b0 f3 7a 96 3b 43 a0 9c bc c5 ff 1a bd 2d 93 12 bc
       0.0045922934 -0.019119387 -0.037841577 -0.008946222
0000c0 ed d7 c3 bb c7 8f ea bb 1d 6a d5 bb 8b e6 52 3a
       -0.005976668 -0.007158253 -0.006512894 0.0008045218
0000d0 3e d6 72 bb 41 ec 55 3b be f7 72 3a 64 da 89 bc
       -0.0037053968 0.003264204 0.0009268484 -0.01682777
0000e0 8f e3 50 3b 87 41 16 bc fc ad df bc f2 c7 f5 3b
       0.0031873917 -0.009170896 -0.027304642 0.007500642
0000f0 35 51 50 bb ff 1b 9d bb f9 2f 81 3b e3 ba 2d 3c
       -0.0031786684 -0.004794597 0.0039424864 0.010603639
000100 02 6f 92 3c 26 49 85 bb 1d 6f 13 ba 86 6d ba bb
       0.017875198 -0.004067558 -0.0005624162 -0.0056893257
000110 c8 1c 6b 3b f5 f1 15 bc e3 fe bb bb 88 fc db bb
       0.003587531 -0.009151925 -0.005737172 -0.0067134537
000120 21 f1 23 39 14 ca 73 bb 14 46 d6 3a 97 38 81 bc
       0.00015634719 -0.0037199305 0.0016347789 -0.015774054
000130 1e 94 4d bc 78 05 5b bc af ef 82 bc 2b 6b d3 bc
       -0.012547521 -0.013368003 -0.01598343 -0.025807938
000140 6e 20 99 bb d1 9b 22 bc ba 66 48 bc 9e c0 1b 3c
       -0.0046730554 -0.009924845 -0.012231523 0.009506373
000150 a8 c5 c6 bb 12 79 70 bb 17 88 76 bb e5 49 1f bb
       -0.006066043 -0.0036693257 -0.0037617737 -0.002430552
000160 2b 59 24 3b ca 7a 87 bb 7d 75 32 ba 5b 90 75 3a
       0.0025077562 -0.0041345106 -0.0006807668 0.0009367519
000170 7d 52 9a ba f5 21 36 39 b4 78 5b bb f4 3e 0c 3b
       -0.0011773851 0.00017369523 -0.0033488693 0.0021399828
000180 fa 21 6c bc c5 ea d0 bc 6c bf 7b bc 1a e9 79 bb
       -0.0144123975 -0.025502572 -0.015365463 -0.0038133324
000190 cc 5f 84 3a 5b ec cd bb c3 fa e8 3a a3 ed 2a 3b
       0.001009935 -0.0062842793 0.0017774928 0.0026081584
0001a0 23 cf 1a bb bd 43 63 3b 0f 17 23 bc cc e4 24 3c
       -0.0023621998 0.0034677826 -0.009954228 0.010064315
0001b0 0b fd 35 3c 49 b5 08 bd 05 57 fd 3b 1e 60 63 bc
       0.011107693 -0.033376012 0.007731321 -0.013877897
0001c0 1d e1 0b bd 71 ac b4 bb ef 56 01 3b a5 a3 d5 3a
       -0.03415023 -0.0055137207 0.0019735654 0.001629938
0001d0 bc c1 c1 3b 46 6e 10 3a fb 77 51 bb 49 5f c1 3b
       0.0059129875 0.0005509596 -0.0031962383 0.0059012515
0001e0 d0 5e 73 ba b6 db 25 3b ad fc 36 bb 31 fe fe 3a
       -0.00092838425 0.002530796 -0.0027921603 0.0019454417
0001f0 24 ae 5e bb ee a9 b2 3b 3a 26 0d bc 82 67 c0 bb
       -0.0033978308 0.005452386 -0.008615071 -0.005871714
000200 fb e0 1f bb 38 c4 fd bb 57 1f 0a bd c6 c8 a3 bb
       -0.0024395573 -0.0077443384 -0.033721294 -0.0049982993
000210 f9 3c f3 3a 4c 56 e6 3a 09 87 3a 3a bd bb 50 bc
       0.00185576 0.0017573326 0.0007115459 -0.012740073
000220 2a 76 8b bb dd 1f 76 bc 94 a9 30 bb d8 2b 46 bc
       -0.0042560296 -0.015022245 -0.0026956545 -0.012095414
000230 ec 11 22 3c 49 4b b2 ba 9c 12 95 ba fb f8 01 b8
       0.009891968 -0.0013602759 -0.0011373344 -3.0987878e-05
000240 96 15 a2 ba 07 ad 97 bb 97 02 88 bb b4 ad 3d bc
       -0.0012366052 -0.0046287808 -0.0041506994 -0.011577059
000250 db ca 05 bd 6c a0 0c bc 86 7d 69 ba e3 ae 4f 3b
       -0.03266416 -0.008583169 -0.0008906949 0.0031689934
000260 70 b0 ee ba 27 53 0e bc d9 ce d2 bc 02 da c7 bb
       -0.0018210541 -0.008686817 -0.025733398 -0.0060989866
000270 0b a0 2d 3b d5 b8 e2 3a 46 7b 93 39 e0 c2 a6 bb
       0.0026493098 0.0017297516 0.0002812987 -0.005089149
000280 60 0e e6 bb 29 bf 0a bb f1 08 cd bb bd 9f 52 bc
       -0.0070207566 -0.002117107 -0.0062571694 -0.012855467
000290 af 97 9a bb db 24 93 3a 7a f8 dd 3a 90 6c 8e bb
       -0.004717789 0.0011226194 0.0016935014 -0.0043464378
0002a0 02 e7 c0 bb 5a 23 a0 bb db 0b 6d 3b c6 8f 4d bb
       -0.0058869133 -0.0048870267 0.0036170396 -0.0031366213
0002b0 5e 03 b3 bc 3c e5 a3 bb 23 45 3e 36 41 96 e2 3a
       -0.021852192 -0.005001692 2.835245e-06 0.0017287211
0002c0 c3 ed b9 bb 91 f9 0e bc 7b 7d 70 3b fa 55 f0 b9
       -0.0056740954 -0.008726493 0.0036695886 -0.00045840425
0002d0 21 e4 83 bc 88 f2 76 bc 2f 08 74 bc 82 7c d3 bb
       -0.016099991 -0.015072472 -0.014894529 -0.0064540515
0002e0 56 5f a7 3c fc a2 8a bc 94 90 a8 bb 03 16 ef bc
       0.020431202 -0.01692342 -0.005144188 -0.0291853
0002f0 53 c1 8c 3b 8f 84 c1 bc f3 ab ac bd a4 ed d6 bb
       0.004295507 -0.02362278 -0.08431234 -0.0065590907
000300 b3 f5 94 bb 68 a5 40 bc d0 5e b4 ba c3 ee 9a bc
       -0.004545891 -0.011758186 -0.0013761166 -0.018912679
000310 df 35 3b 3c 72 f7 71 bc 19 f4 b0 bb 6e c6 9e bb
       0.011426418 -0.014768468 -0.0054001925 -0.004845432
000320 4c 72 20 3c a7 e6 85 ba 9e 09 ca bb 13 c9 49 3b
       0.0097928755 -0.0010215834 -0.0061656972 0.0030790016
000330 62 d1 67 bb 27 31 50 bb 4c 58 1c bb a3 b1 70 3a
       -0.0035372605 -0.0031767578 -0.002385634 0.00091817434
000340 6f b9 fb ba 34 8a 4b 3b a0 cf 03 ba a0 81 20 3a
       -0.0019205044 0.0031057717 -0.0005028192 0.0006122831
000350 d7 98 87 ba 04 81 bb 3a fd de 4d 3b 7c 4b 26 3a
       -0.0010345232 0.0014305417 0.003141343 0.00063436455
000360 40 40 71 bc d0 9c bc 3b db 38 71 bc 23 d4 01 3c
       -0.014724791 0.005755998 -0.014723028 0.0079241125
000370 4a 35 87 3c 0a ad 1c bc 34 27 8b bc 76 94 00 bd
       0.016504902 -0.00956274 -0.016986467 -0.031391583
000380 6e 48 76 bc ae 63 6e 3a 27 dd 13 bc 41 4f 86 36
       -0.015031917 0.0009093833 -0.009024895 4.0027376e-06
000390 25 dc 87 bc 77 c2 90 bc a8 9e 60 bc 86 d0 9a 3a
       -0.016584465 -0.017670853 -0.013709702 0.0011811412
0003a0 27 ab 30 3b 8c ca 11 bb ed 6a ef 3a 60 44 be 3a
       0.0026957483 -0.0022245971 0.0018266119 0.0014516227
0003b0 ce 5a 04 ba 45 25 bd bb 85 d3 23 bb 59 38 06 bc
       -0.00050489313 -0.005772265 -0.0024997902 -0.008192145

net.network.1.downsample.bias f4 [80]
000000 3f 98 94 be b0 ad 12 3f c4 d2 b2 be 61 a6 1d 3b
       -0.29022405 0.57296276 -0.34926426 0.0024055468
000010 40 80 80 be f9 2e 69 3e 0b 67 66 3e 4a 7b 81 3e
       -0.25097847 0.22771825 0.22500245 0.25289375
000020 b0 89 0e bf b9 de 73 be d6 a7 d1 3d 36 97 0e 3f
       -0.55678844 -0.2381543 0.1023709 0.5569948
000030 2e b7 d7 3e cb 81 16 3c 39 57 64 be 1c 88 ea be
       0.42131943 0.0091862185 -0.22298898 -0.45806968
000040 d0 07 fb 3c f0 c6 6b 3e 29 3d 02 3f 6c 06 92 be
       0.030643374 0.23025107 0.50874573 -0.28520525
000050 40 e2 c8 3d a2 42 d7 be 01 a2 c0 3e 2f 88 89 be
       0.09808779 -0.42043024 0.376236 -0.26861712
000060 d4 7d e1 3e b6 f5 c5 be b5 0c fb be 3c 40 8f 3e
       0.44041312 -0.38664025 -0.49033132 0.27978694
000070 51 2f 0c 3f 01 e6 06 3f 30 ef c9 3e 25 78 b6 3e
       0.547597 0.5269471 0.39440298 0.35638538
000080 2a d3 5c be 4d a3 e8 3e 8b 16 b9 3e d3 e6 fb be
       -0.21564928 0.4543709 0.3615001 -0.49199542
000090 3f 1f c6 be 6f 96 59 be 58 fd ee be 0b 01 c4 bd
       -0.38695714 -0.21248792 -0.4667766 -0.095705114
0000a0 f1 94 82 3e 6d 0e b0 3e 3f 42 00 3f 3d ee ae be
       0.25504258 0.34386006 0.50101084 -0.34166136
0000b0 ab 57 1d 3e f9 c7 a8 be 4f cf 2f be 76 32 07 bf
       0.15365474 -0.32965067 -0.17168926 -0.5281137
0000c0 2d d8 c7 bd 4f db ab be 96 cb e4 3d 09 48 e3 be
       -0.09758029 -0.33565757 0.111716434 -0.44390896
0000d0 34 e8 27 3e 0e d0 3b be 81 0b ee bd 14 eb 81 3e
       0.16397172 -0.18341085 -0.11623288 0.25374663
0000e0 22 8c 34 3d 22 e6 58 be d7 70 71 3e 09 6e 6e bd
       0.044078954 -0.21181539 0.23578201 -0.058210406
0000f0 fb 45 b8 be 9b f6 a4 be fd 91 af be f8 47 f9 3e
       -0.3599089 -0.32219395 -0.34291068 0.4868772
000100 db 7f a6 be 43 ba 7e 3d 6e cf f8 3d 32 73 05 3f
       -0.3251942 0.06218935 0.12148939 0.521289
000110 3b 6c 03 3f b4 ce dd 3e 84 ba f4 3e 05 08 85 3e
       0.5133702 0.43321764 0.4779855 0.2598268
000120 4b ef 87 3d 52 37 c2 be 1c f1 aa be af cf a1 be
       0.066374384 -0.3793283 -0.33387077 -0.31603763
000130 aa 5a d6 be cc 2e cb 3e c9 81 07 3f 5d d8 41 3d
       -0.41866046 0.3968414 0.5293241 0.04732548
