model_disc.pth (torch, 595328 bytes, 56 tensors)

net.network.0.dconv1.weight f4 [1, 1, 2]
0	0x3aa1e150	0.0012350474
1	0xb94abf52	-0.00019335494

net.network.0.dconv2.weight f4 [1, 1, 2]
0	0x3ba97847	0.005171809
1	0x3b6f4655	0.0036510427

net.network.0.net.0.weight f4 [1, 1, 2]
0	0x3aa1e150	0.0012350474
1	0xb94abf52	-0.00019335494

net.network.0.net.3.weight f4 [1, 1, 2]
0	0x3ba97847	0.005171809
1	0x3b6f4655	0.0036510427

net.network.1.dconv1.weight f4 [80, 1, 2]
0	0xbd134128	-0.03595081
1	0x3c19e32e	0.009392543
2	0xba45c5dc	-0.0007544437
3	0xbbebf88a	-0.007201259
4	0xbaf851c8	-0.0018945271
5	0xba035117	-0.0005009337
6	0x3c01e450	0.007927969
7	0x3ba68ad5	0.005082468
8	0x3b26b0c6	0.0025434955
9	0xbbee6a1b	-0.0072758324
10	0x3c419ac9	0.011816689
11	0x3c01153f	0.007878601
12	0x3bab135e	0.0052208146
13	0x3b93098c	0.004487222
14	0x3c724a0d	0.014788163
15	0xba4cb977	-0.0007809619
16	0xbb5baa02	-0.003351808
17	0xbb59a751	-0.00332113
18	0x3c4f08ba	0.012636358
19	0x3bf8c17a	0.0075914236
20	0xbc09e578	-0.008416526
21	0xbc0f3e4f	-0.008742883
22	0x3b8dd477	0.0043283063
23	0x3bb8c64b	0.0056388727
24	0x3c8e1eda	0.017348696
25	0x391d4792	0.00014999349
26	0x3c050ae1	0.0081202695
27	0x3c45bf55	0.012069543
28	0x3bf24932	0.0073939795
29	0x3be4e3c7	0.006985161
30	0x3aefa5e3	0.0018283691
31	0xbb0d4783	-0.0021557517
32	0xbb48add2	-0.0030621183
33	0xba447a61	-0.00074950425
34	0x3d14e05c	0.03634678
35	0x3c7735aa	0.015088478
36	0x3c0874ee	0.008328659
37	0xbc0f6d7d	-0.008754131
38	0xbc3f7a80	-0.011686921
39	0xb911675d	-0.00013866783
40	0x3ad91017	0.0016560581
41	0x3bc4df92	0.006008097
42	0xbc4b0aa1	-0.012392671
43	0x3b468b87	0.0030295567
44	0x3ca47bff	0.020078657
45	0xbc35a37a	-0.011086339
46	0x3c409ca9	0.011756101
47	0xbc91bcde	-0.017790254
48	0xbc531158	-0.012882553
49	0xbb28af1a	-0.0025739134
50	0x3bf6fdef	0.0075375955
51	0x3b532ff3	0.0032224625
52	0xbca5f394	-0.020257749
53	0xbd1930c2	-0.037400015
54	0x3bc318ff	0.0059539075
55	0x3c3524a7	0.011056102
56	0xbaa32400	-0.0012446642
57	0xbbd20b4d	-0.0064100386
58	0xbc4efa60	-0.012632936
59	0xbc06c978	-0.008226745
60	0xbc8b4eb1	-0.017005296
61	0xbc714808	-0.014726646
62	0x3c71a18b	0.0147479875
63	0xbb24beb0	-0.0025138073
64	0xbbaa426f	-0.005195908
65	0x3ba10a90	0.004914589
66	0x3c0d7b1c	0.008635309
67	0xbb27c32e	-0.0025598514
68	0x3cbfac71	0.023397656
69	0x3b97e985	0.004635992
70	0x3b8dfa06	0.0043327836
71	0xba6453bf	-0.0008709989
72	0x3be46dcc	0.0069710966
73	0x3bb167b4	0.0054139737
74	0x3baabc6b	0.0052104495
75	0x3c5e5fc5	0.013572638
76	0x3bd4c228	0.006492872
77	0xbb773af6	-0.0037724352
78	0xbc0f3a02	-0.0087418575
79	0x378c57f8	1.6730264e-05
80	0x3a90d529	0.0011049855
81	0x39c0fdae	0.000368101
82	0x3c160a87	0.009157783
83	0x3bf2ce7b	0.0074098683
84	0x3b393cfa	0.0028265105
85	0x3c477fc4	0.012176458
86	0xbb58da9b	-0.0033089283
87	0xbb0ccb94	-0.0021483647
88	0xbb5c1de5	-0.0033587154
89	0xbbd4a271	-0.006489091
90	0x3bd82da5	0.006597238
91	0xbbf618ae	-0.0075102663
92	0x3c1316d1	0.008977608
93	0x3c70450e	0.014664901
94	0x3c049858	0.008092962
95	0xbaf4df6b	-0.0018682306
96	0xbc8e3f4b	-0.017364165
97	0x3ac84421	0.0015279093
98	0x3c2c2719	0.0105073685
99	0x3c140453	0.009034234
100	0xbb418bcb	-0.0029532786
101	0xbb617583	-0.0034402318
102	0xbbe09ac4	-0.006854387
103	0xbbd1d188	-0.006403152
104	0xbbb5451c	-0.00553192
105	0x3c04b4a7	0.0080997115
106	0xbc8fb3b8	-0.017541751
107	0xb9ba2ea4	-0.00035511435
108	0xba8c389b	-0.0010698022
109	0x3babf643	0.0052478625
110	0xbb36d34a	-0.0027896934
111	0x3add76f6	0.0016896415
112	0xbb766593	-0.0037597164
113	0xbaf18286	-0.001842574
114	0x3cb00212	0.021485362
115	0x3cb52c1e	0.022115763
116	0x3bf00b80	0.0073255897
117	0x3bb0f8d3	0.005400756
118	0xbbb1896b	-0.005417993
119	0x3ae2f955	0.0017316738
120	0x3befbc2b	0.0073161325
121	0x3b3b33ed	0.0028564886
122	0x3c58b293	0.013226169
123	0x3c2fda33	0.010733175
124	0x3b2837ff	0.0025668142
125	0xbb97d853	-0.004633942
126	0xbc2edf31	-0.01067333
127	0xbba24622	-0.004952208
128	0x3ca3d990	0.020001203
129	0x3cabcf6c	0.02097293
130	0xbb984229	-0.004646559
131	0x3b00980c	0.0019621877
132	0x3c3b6f1c	0.011440065
133	0xbb01615d	-0.001974187
134	0x3b6e438d	0.0036356181
135	0xbc71ce02	-0.014758589
136	0xbc336b89	-0.010950931
137	0xbbf4c8c5	-0.0074702227
138	0x3c1d62d9	0.009606087
139	0xbc737a1a	-0.014860654
140	0x3b9ed926	0.0048476635
141	0xbaa2500a	-0.0012383473
142	0x3b07361e	0.0020631622
143	0xb8c0a76f	-9.1864604e-05
144	0x3a9f9d6b	0.0012177652
145	0x3d1906a0	0.037359834
146	0xbc149721	-0.009069235
147	0xbbe93bf2	-0.0071177417
148	0x3bc39b3f	0.0059694345
149	0x3b7cf361	0.0038597214
150	0xbac9bca8	-0.0015391307
151	0x3ad2369f	0.0016038007
152	0xbc254ca2	-0.0100890715
153	0xbae7ce3b	-0.0017685363
154	0xbaa1a9e5	-0.0012333958
155	0xba87087c	-0.0010302211
156	0xb8cadd47	-9.673327e-05
157	0x3baa16f5	0.005190725
158	0x3bf7fee8	0.007568229
159	0xbc0a9f25	-0.008460795

net.network.1.dconv1.bias f4 [80]
0	0xbbf2f921	-0.0074149524
1	0xbcc56878	-0.024097666
2	0x3d0b8a3a	0.03406737
3	0x3cea4dcf	0.028601555
4	0xbc82e2e4	-0.01597733
5	0x3cbf57f9	0.023357378
6	0x3c384647	0.011247224
7	0xbc4145b6	-0.011796406
8	0xbccec6bf	-0.025241254
9	0x3c81f84c	0.015865467
10	0x3d146b39	0.036235068
11	0xbd048dd8	-0.032361835
12	0xbcd9c565	-0.026583383
13	0x3d1d6efd	0.038435925
14	0xbcb82e3a	-0.02248298
15	0x3cd34a21	0.025792183
16	0x3c5a3277	0.013317696
17	0xbbffbe8f	-0.007804699
18	0x3cca4763	0.024692243
19	0x3d0745b9	0.033025477
20	0x3cbe8962	0.023258869
21	0xbc946064	-0.018112369
22	0x3cb84b52	0.022496853
23	0x3ca9a122	0.020706717
24	0xbce8aedd	-0.028403694
25	0x3ca1001e	0.019653376
26	0x3c0b04d6	0.00848504
27	0xbcf4c80e	-0.02988055
28	0xbced438f	-0.028962879
29	0xbc37fd4e	-0.011229826
30	0x3d173f46	0.036925577
31	0x3c5219b7	0.012823514
32	0xbca828ab	-0.020527204
33	0x3d1ce6be	0.03830599
34	0xbcc41585	-0.023936043
35	0xbcf6b3a3	-0.030114954
36	0x3c9ab69f	0.018885909
37	0x3c9cf3aa	0.019159157
38	0x3cffcbeb	0.031225165
39	0x3ca45352	0.020059261
40	0x3c8a174d	0.016856814
41	0xbcdf88d3	-0.027286923
42	0x3d22b366	0.03972187
43	0x3cb51344	0.022103913
44	0x3cc7b8b6	0.02438007
45	0xbd0ea1ab	-0.034822147
46	0xbcdb2192	-0.026749406
47	0x3cda02d9	0.026612686
48	0xbcb9af62	-0.022666637
49	0x3d18eb1d	0.037333596
50	0xbcd2de14	-0.02574066
51	0x3cd8f580	0.026484251
52	0x3cf6801a	0.03009038
53	0xbd044899	-0.032295797
54	0xbcbf6992	-0.02336577
55	0xbc711bc8	-0.014716096
56	0x3c9b1734	0.018931963
57	0xbd084d8d	-0.033277083
58	0x3d00026a	0.031252302
59	0x3cee82f7	0.029115183
60	0xbcc3e8a7	-0.023914648
61	0x3c0f2d08	0.008738764
62	0xbcb203cd	-0.021730328
63	0x3ccbce52	0.024878655
64	0xbd0ac3ff	-0.033878323
65	0x3c43b66f	0.011945351
66	0xbcf89112	-0.030342612
67	0x3cb66a41	0.022267463
68	0x3cbd8b0d	0.023137594
69	0xbc6100b5	-0.013733079
70	0x3d058a71	0.03260273
71	0x3d0bacd6	0.034100376
72	0xbc90b104	-0.017662533
73	0x3cb95ca7	0.022627188
74	0xbcecf1c0	-0.02892387
75	0xbd187302	-0.037219055
76	0xbcc771de	-0.024346288
77	0xbc9fb76a	-0.019496638
78	0xbc51b64e	-0.0127998125
79	0xbcab847e	-0.0209372

net.network.1.dconv2.weight f4 [80, 80, 2]
0	0xbc740c05	-0.014895444
1	0x3ca6e87f	0.020374535
2	0xba17aaf2	-0.00057856657
3	0xbbf00dd0	-0.0073258653
4	0x3ca879d6	0.020565908
5	0x3c23a49b	0.0099879755
6	0xbb1f2153	-0.0024281337
7	0xbc49834f	-0.012299373
8	0x3c131c31	0.008978889
9	0x3aa60c96	0.0012668546
10	0x3bdd6b45	0.0067571723
11	0x3be71cee	0.0070530092
12	0xbc269df7	-0.010169498
13	0x3c4f8218	0.012665294
14	0xbbe8d1eb	-0.0071051023
15	0x39b5819e	0.00034619583
16	0x3a495e5e	0.00076816033
17	0x3a5f7d12	0.0008525412
18	0x3c9d72e0	0.019219816
19	0x3c868092	0.016418729
20	0x3bb71cc4	0.005588146
21	0x3c3228bb	0.010873969
22	0x3a97b774	0.0011575059
23	0xbbd553e9	-0.006510247
24	0x3bd08238	0.0063631795
25	0x3b9dfa49	0.004821096
26	0x3c4d7231	0.012539432
27	0x3c4e34e0	0.012585849
28	0xbc0059a8	-0.007833876
29	0x3b768073	0.0037613183
30	0x3c08400a	0.008316049
31	0x3c38541d	0.011250523
32	0x3c415911	0.01180102
33	0x3bb04320	0.0053790957
34	0xbae7f9d4	-0.0017698356
35	0xbb363eb4	-0.002780837
36	0xbc2ad11f	-0.010425835
37	0xbb4cafa9	-0.0031232631
38	0xbb688d93	-0.0035484775
39	0xba8d8717	-0.0010797706
40	0x3c371d28	0.011176385
41	0x3bd2b2db	0.0064300126
42	0xbb2267c6	-0.0024781092
43	0x3b9798b9	0.0046263603
44	0x3bbee1ee	0.0058252728
45	0x3c6d0b0c	0.014467966
46	0x3b5ba77b	0.0033516574
47	0x3c5f6876	0.013635745
48	0x3bd38616	0.0064551933
49	0xbb8c81d9	-0.00428794
50	0x3bd440ec	0.006477466
51	0x3caeb403	0.02132607
52	0x3baa5e2f	0.005199216
53	0x3c8221dd	0.015885288
54	0x3a4325a2	0.00074442674
55	0xbb4058f7	-0.0029349902
56	0x3bcb98a1	0.006213263
57	0xbbadbd99	-0.005302143
58	0xbad5fbdf	-0.0016325674
59	0x3bf5ee3b	0.007505206
60	0x3c3117eb	0.010808925
61	0x3c327b51	0.010893659
62	0x3c330c50	0.0109282285
63	0x3c263341	0.010144056
64	0x3ae96d52	0.0017809069
65	0xbb17ba2e	-0.0023151743
66	0x3c0f6519	0.008752131
67	0x3c29d15c	0.010364857
68	0xbb2e379a	-0.0026583434
69	0xbbb46445	-0.005505117
70	0xbb5d512d	-0.0033770308
71	0xbb43683d	-0.002981677
72	0x3c99ad69	0.018759446
73	0x3bf825b3	0.0075728535
74	0x3ca3bf31	0.019988628
75	0x3c634e15	0.013873597
76	0xbb5a0bcb	-0.003327119
77	0x3c7569f7	0.014978877
78	0x3be3d3db	0.0069527454
79	0x3c3e702b	0.011623423
80	0xb58f4e83	-1.067718e-06
81	0x3c176c43	0.00924212
82	0xbb94f2a6	-0.0045455275
83	0xb8ac290b	-8.209244e-05
84	0xba555d75	-0.00081392314
85	0x3ce326b8	0.027728423
86	0x3bdebea5	0.006797629
87	0x3c8d9768	0.01728411
88	0x3bca753b	0.0061785257
89	0x3bbe60e4	0.00580989
90	0xb8a29da0	-7.754122e-05
91	0xbaf74596	-0.0018865343
92	0xbbf68e74	-0.007524306
93	0xbbe7aa6a	-0.0070698755
94	0x3c545d6d	0.012961728
95	0x3c237839	0.009977394
96	0x3afe51f8	0.0019403091
97	0x3a8e195b	0.0010841297
98	0x3c6f353b	0.0146000935
99	0x3c854c93	0.016271865
100	0x3ae3f05c	0.0017390358
101	0xbb9f7be4	-0.004867064
102	0x3bb9ffc2	0.0056762407
103	0x3c531ee5	0.012885784
104	0xbb8d1cbc	-0.004306404
105	0x3bfcd257	0.007715504
106	0xbbb42743	-0.0054978444
107	0x3bfe9013	0.00776864
108	0x3a16bb74	0.00057499786
109	0x3b4a2e61	0.0030850398
110	0xbc00abe4	-0.007853482
111	0x3bfd1422	0.0077233473
112	0x3cabb382	0.02095962
113	0x3b338272	0.0027390984
114	0xba9ee745	-0.0012123367
115	0xbc7b268b	-0.015329014
116	0x3b4de292	0.0031415564
117	0x3c441793	0.011968511
118	0x3bada0a0	0.005298689
119	0x3c832de2	0.01601309
120	0x3ba51786	0.0050382046
121	0xbbdc4d41	-0.0067230766
122	0x3c42138d	0.011845482
123	0x3c363201	0.01112032
124	0x3c05b05a	0.008159721
125	0x3b602f11	0.0034207741
126	0x3ca25411	0.019815477
127	0xbb2e81f3	-0.0026627749
128	0x3bd0b1d4	0.006368855
129	0xbc6aeff9	-0.0143394405
130	0x3c320347	0.010865039
131	0x3c8178b3	0.015804624
132	0x39e2a443	0.00043228464
133	0xbb97f9f8	-0.004637953
134	0x3bee3302	0.007269264
135	0xbbc280b8	-0.0059357546
136	0x3c7d4215	0.01545765
137	0x3c5148c1	0.012773694
138	0x3ba98e55	0.005174438
139	0xbb616403	-0.0034391887
140	0x3b91c38e	0.0044483608
141	0x3b4c3230	0.0031157844
142	0x3c61ec03	0.01378918
143	0x3c9fea3b	0.01952087
144	0x3d23b164	0.039964095
145	0x3d238fcc	0.039932057
146	0x3c0a55be	0.008443294
147	0x3c867165	0.016411493
148	0xbbeb76aa	-0.0071857767
149	0xbbf9bb7e	-0.0076212278
150	0xbbda53e2	-0.0066628316
151	0xbc35e423	-0.011101755
152	0x398b0f87	0.00026523715
153	0x3a1f9502	0.00060875725
154	0xbb8b42b1	-0.0042498936
155	0xbbc0c960	-0.005883381
156	0x3bef4265	0.007301616
157	0x3bae1cc0	0.005313486
158	0xbc62b0f3	-0.013836133
159	0x3a974ed1	0.0011543875
160	0x3988140b	0.00025954875
161	0x38c4cbad	9.383946e-05
162	0x3a792a7d	0.00095049274
163	0x3b12f250	0.0022422262
164	0xbbfae6c7	-0.0076569053
165	0xbb9b9a7a	-0.0047486397
166	0x3c57180c	0.013128292
167	0x3bc18815	0.005906115
168	0x399a04d7	0.00029376775
169	0xba9bb29d	-0.0011878792
170	0x3a7b5a8e	0.0009588384
171	0x3aa0bec4	0.0012263884
172	0xba1288f7	-0.00055898674
173	0x3b9124ef	0.0044294517
174	0xba078ea4	-0.00051710964
175	0xba670237	-0.0008812281
176	0x3b38dcf7	0.0028207877
177	0xb9c73f2d	-0.00038003307
178	0x3af32339	0.0018549926
179	0x3c2790de	0.01022741
180	0x397d9e18	0.00024186855
181	0x3aa926e6	0.0012905269
182	0x3af0a411	0.0018359442
183	0x39bf6007	0.00036501905
184	0x3afb6ed6	0.0019182812
185	0x3b3ccd28	0.0028808806
186	0x3bbbbb1b	0.005729092
187	0x3c0ce7b0	0.0086001605
188	0x3890e2a7	6.9086724e-05
189	0x3ad55893	0.0016277008
190	0x3bb7f4f3	0.005613917
191	0x39ed8228	0.00045301137
192	0xbbabceeb	-0.0052431724
193	0x3b074ae3	0.0020644001
194	0x3b5050f8	0.0031786542
195	0x3b9b5efd	0.004741548
196	0xbbba7a52	-0.0056908512
197	0x3b5deb94	0.003386234
198	0x3af90002	0.0018997195
199	0x3a803134	0.0009780289
200	0x3c013b89	0.007887729
201	0xbb5879aa	-0.0033031502
202	0x3aa78fa0	0.0012783892
203	0xb911c435	-0.0001390137
204	0xbb56864f	-0.0032733863
205	0x3b65b3a8	0.003504971
206	0xbbe5023d	-0.006988792
207	0x3b0f8b56	0.002190312
208	0x3ad4699e	0.0016205793
209	0x39fa5c31	0.00047752404
210	0xbada9030	-0.0016675051
211	0x3b052689	0.0020317158
212	0xbb8e2ecf	-0.004339076
213	0x38dea7b8	0.00010617025
214	0x3adf5fcc	0.00170421
215	0x3b25b7bd	0.0025286519
216	0xba3c6a4a	-0.0007187469
217	0x3abadc45	0.0014256319
218	0xb80095a9	-3.065696e-05
219	0x3b55c6e4	0.0032619769
220	0x3b169822	0.0022978862
221	0xbae256b7	-0.0017268275
222	0xbb3101d6	-0.002700915
223	0xb9a0d52c	-0.00030676404
224	0x3ad1347d	0.0015961077
225	0xb6db3cad	-6.533772e-06
226	0x3910aafc	0.00013796607
227	0xbb14de59	-0.0022715537
228	0xba463aba	-0.00075618515
229	0x3b4ca3a8	0.0031225476
230	0x3a1cfc5f	0.0005988534
231	0x3b020a8d	0.0019842715
232	0x3b2a0f71	0.0025949145
233	0x3b7eeea0	0.0038899556
234	0x3bf8c3a6	0.0075916825
235	0x3c124c6f	0.008929356
236	0x3b93156f	0.004488639
237	0xbbe5c95f	-0.0070125307
238	0xbbd26872	-0.0064211423
239	0x3c2c5546	0.010518378
240	0x3ae7e520	0.0017692186
241	0x3c1d9c78	0.009619825
242	0x3aaf1eab	0.001336058
243	0xba4b1d6e	-0.0007748221
244	0x3bb627bb	0.0055589355
245	0x3bba6ce0	0.0056892484
246	0xbba6b58a	-0.005087559
247	0xbbb7dc13	-0.0056109517
248	0x3acc0a29	0.0015566993
249	0xba10556e	-0.0005505894
250	0xbaccaa73	-0.0015614763
251	0x3b1624e1	0.0022910165
252	0xbaa6cf0c	-0.00127265
253	0x3af64566	0.0018788993
254	0xbbc4a913	-0.0060016005
255	0xbb534264	-0.0032235617

net.network.1.dconv2.bias f4 [80]
0	0x3cf0e864	0.029407687
1	0xbb9fdecc	-0.0048788544
2	0xbbd934f5	-0.0066286274
3	0x3d06cb66	0.03290882
4	0x3cc5b2c4	0.024133094
5	0x3cdbf91b	0.026852181
6	0xbc0661f2	-0.008202063
7	0x3c91971f	0.017772255
8	0xbced3ed2	-0.02896062
9	0x3c108dd4	0.008822877
10	0x3b09c66f	0.0021022817
11	0xbd18f3a2	-0.03734172
12	0x3cde0da6	0.027106117
13	0x39a63623	0.00031702322
14	0x3bfe7afd	0.007766126
15	0x3cf476c5	0.02984179
16	0x3cc023c8	0.023454562
17	0x3ac5537a	0.0015054785
18	0xbd108367	-0.035281565
19	0xbd21191a	-0.03933058
20	0x3d04a1fb	0.03238104
21	0xbc27df46	-0.010246104
22	0x3ce5ecd8	0.028067037
23	0x3c3e0fa7	0.0116004115
24	0x3d09efe0	0.03367603
25	0x3d2274fe	0.039662354
26	0x3c622ba4	0.01380435
27	0xbd0c135d	-0.034198154
28	0xbcfe6126	-0.031052183
29	0xbd011c61	-0.031521205
30	0xbcfabcc1	-0.030607583
31	0x3bed1796	0.0072354777
32	0xbb8ef25d	-0.004362388
33	0xbd1d5e9c	-0.038420305
34	0x3c82f76b	0.015987119
35	0x3bed911a	0.0072499635
36	0xbcdfd4fa	-0.027323235
37	0x3d089aea	0.033350863
38	0x3c63588a	0.01387609
39	0xbb570543	-0.0032809533
40	0xbd01bae2	-0.031672366
41	0xbc86ca27	-0.016453816
42	0x3d158173	0.036500406
43	0xb89ca0e8	-7.468631e-05
44	0xbb56da06	-0.003278376
45	0x3c898e21	0.016791405
46	0xbca45cf5	-0.020063857
47	0xbd12f14b	-0.035874646
48	0xbd09bd15	-0.03362759
49	0x3c0c6e0f	0.008571162
50	0xbc4aae41	-0.012370647
51	0xbd1f31e2	-0.03886593
52	0xbc8bcf96	-0.017066758
53	0x3c92c941	0.017918231
54	0xbd1f9062	-0.038956054
55	0x3ce4039d	0.027833754
56	0x3d0d2d18	0.034466833
57	0xbc847195	-0.016167441
58	0xbd2195c7	-0.03944948
59	0x3c6c34e6	0.014416909
60	0xbcd19b81	-0.025586845
61	0x3d04119e	0.032243364
62	0x3d0071de	0.031358592
63	0x3d04d086	0.032425426
64	0x3d0724ed	0.0329942
65	0xbcd81a41	-0.026379706
66	0x3cfd6235	0.030930618
67	0x3cb18701	0.02167082
68	0xbc96b8af	-0.01839861
69	0x3cd38353	0.025819456
70	0x3cfa7a16	0.030575793
71	0x3c9738d7	0.01845972
72	0xbd194c74	-0.037426427
73	0xbcf0ddcc	-0.029402636
74	0xbcc2152d	-0.023691738
75	0xbccdad9d	-0.0251072
76	0xbcdb564c	-0.026774548
77	0x3d111263	0.035417926
78	0x3cc11c6c	0.023573123
79	0x3cba5973	0.02274773

net.network.1.net.0.weight f4 [80, 1, 2]
0	0xbd134128	-0.03595081
1	0x3c19e32e	0.009392543
2	0xba45c5dc	-0.0007544437
3	0xbbebf88a	-0.007201259
4	0xbaf851c8	-0.0018945271
5	0xba035117	-0.0005009337
6	0x3c01e450	0.007927969
7	0x3ba68ad5	0.005082468
8	0x3b26b0c6	0.0025434955
9	0xbbee6a1b	-0.0072758324
10	0x3c419ac9	0.011816689
11	0x3c01153f	0.007878601
12	0x3bab135e	0.0052208146
13	0x3b93098c	0.004487222
14	0x3c724a0d	0.014788163
15	0xba4cb977	-0.0007809619
16	0xbb5baa02	-0.003351808
17	0xbb59a751	-0.00332113
18	0x3c4f08ba	0.012636358
19	0x3bf8c17a	0.0075914236
20	0xbc09e578	-0.008416526
21	0xbc0f3e4f	-0.008742883
22	0x3b8dd477	0.0043283063
23	0x3bb8c64b	0.0056388727
24	0x3c8e1eda	0.017348696
25	0x391d4792	0.00014999349
26	0x3c050ae1	0.0081202695
27	0x3c45bf55	0.012069543
28	0x3bf24932	0.0073939795
29	0x3be4e3c7	0.006985161
30	0x3aefa5e3	0.0018283691
31	0xbb0d4783	-0.0021557517
32	0xbb48add2	-0.0030621183
33	0xba447a61	-0.00074950425
34	0x3d14e05c	0.03634678
35	0x3c7735aa	0.015088478
36	0x3c0874ee	0.008328659
37	0xbc0f6d7d	-0.008754131
38	0xbc3f7a80	-0.011686921
39	0xb911675d	-0.00013866783
40	0x3ad91017	0.0016560581
41	0x3bc4df92	0.006008097
42	0xbc4b0aa1	-0.012392671
43	0x3b468b87	0.0030295567
44	0x3ca47bff	0.020078657
45	0xbc35a37a	-0.011086339
46	0x3c409ca9	0.011756101
47	0xbc91bcde	-0.017790254
48	0xbc531158	-0.012882553
49	0xbb28af1a	-0.0025739134
50	0x3bf6fdef	0.0075375955
51	0x3b532ff3	0.0032224625
52	0xbca5f394	-0.020257749
53	0xbd1930c2	-0.037400015
54	0x3bc318ff	0.0059539075
55	0x3c3524a7	0.011056102
56	0xbaa32400	-0.0012446642
57	0xbbd20b4d	-0.0064100386
58	0xbc4efa60	-0.012632936
59	0xbc06c978	-0.008226745
60	0xbc8b4eb1	-0.017005296
61	0xbc714808	-0.014726646
62	0x3c71a18b	0.0147479875
63	0xbb24beb0	-0.0025138073
64	0xbbaa426f	-0.005195908
65	0x3ba10a90	0.004914589
66	0x3c0d7b1c	0.008635309
67	0xbb27c32e	-0.0025598514
68	0x3cbfac71	0.023397656
69	0x3b97e985	0.004635992
70	0x3b8dfa06	0.0043327836
71	0xba6453bf	-0.0008709989
72	0x3be46dcc	0.0069710966
73	0x3bb167b4	0.0054139737
74	0x3baabc6b	0.0052104495
75	0x3c5e5fc5	0.013572638
76	0x3bd4c228	0.006492872
77	0xbb773af6	-0.0037724352
78	0xbc0f3a02	-0.0087418575
79	0x378c57f8	1.6730264e-05
80	0x3a90d529	0.0011049855
81	0x39c0fdae	0.000368101
82	0x3c160a87	0.009157783
83	0x3bf2ce7b	0.0074098683
84	0x3b393cfa	0.0028265105
85	0x3c477fc4	0.012176458
86	0xbb58da9b	-0.0033089283
87	0xbb0ccb94	-0.0021483647
88	0xbb5c1de5	-0.0033587154
89	0xbbd4a271	-0.006489091
90	0x3bd82da5	0.006597238
91	0xbbf618ae	-0.0075102663
92	0x3c1316d1	0.008977608
93	0x3c70450e	0.014664901
94	0x3c049858	0.008092962
95	0xbaf4df6b	-0.0018682306
96	0xbc8e3f4b	-0.017364165
97	0x3ac84421	0.0015279093
98	0x3c2c2719	0.0105073685
99	0x3c140453	0.009034234
100	0xbb418bcb	-0.0029532786
101	0xbb617583	-0.0034402318
102	0xbbe09ac4	-0.006854387
103	0xbbd1d188	-0.006403152
104	0xbbb5451c	-0.00553192
105	0x3c04b4a7	0.0080997115
106	0xbc8fb3b8	-0.017541751
107	0xb9ba2ea4	-0.00035511435
108	0xba8c389b	-0.0010698022
109	0x3babf643	0.0052478625
110	0xbb36d34a	-0.0027896934
111	0x3add76f6	0.0016896415
112	0xbb766593	-0.0037597164
113	0xbaf18286	-0.001842574
114	0x3cb00212	0.021485362
115	0x3cb52c1e	0.022115763
116	0x3bf00b80	0.0073255897
117	0x3bb0f8d3	0.005400756
118	0xbbb1896b	-0.005417993
119	0x3ae2f955	0.0017316738
120	0x3befbc2b	0.0073161325
121	0x3b3b33ed	0.0028564886
122	0x3c58b293	0.013226169
123	0x3c2fda33	0.010733175
124	0x3b2837ff	0.0025668142
125	0xbb97d853	-0.004633942
126	0xbc2edf31	-0.01067333
127	0xbba24622	-0.004952208
128	0x3ca3d990	0.020001203
129	0x3cabcf6c	0.02097293
130	0xbb984229	-0.004646559
131	0x3b00980c	0.0019621877
132	0x3c3b6f1c	0.011440065
133	0xbb01615d	-0.001974187
134	0x3b6e438d	0.0036356181
135	0xbc71ce02	-0.014758589
136	0xbc336b89	-0.010950931
137	0xbbf4c8c5	-0.0074702227
138	0x3c1d62d9	0.009606087
139	0xbc737a1a	-0.014860654
140	0x3b9ed926	0.0048476635
141	0xbaa2500a	-0.0012383473
142	0x3b07361e	0.0020631622
143	0xb8c0a76f	-9.1864604e-05
144	0x3a9f9d6b	0.0012177652
145	0x3d1906a0	0.037359834
146	0xbc149721	-0.009069235
147	0xbbe93bf2	-0.0071177417
148	0x3bc39b3f	0.0059694345
149	0x3b7cf361	0.0038597214
150	0xbac9bca8	-0.0015391307
151	0x3ad2369f	0.0016038007
152	0xbc254ca2	-0.0100890715
153	0xbae7ce3b	-0.0017685363
154	0xbaa1a9e5	-0.0012333958
155	0xba87087c	-0.0010302211
156	0xb8cadd47	-9.673327e-05
157	0x3baa16f5	0.005190725
158	0x3bf7fee8	0.007568229
159	0xbc0a9f25	-0.008460795

net.network.1.net.0.bias f4 [80]
0	0xbbf2f921	-0.0074149524
1	0xbcc56878	-0.024097666
2	0x3d0b8a3a	0.03406737
3	0x3cea4dcf	0.028601555
4	0xbc82e2e4	-0.01597733
5	0x3cbf57f9	0.023357378
6	0x3c384647	0.011247224
7	0xbc4145b6	-0.011796406
8	0xbccec6bf	-0.025241254
9	0x3c81f84c	0.015865467
10	0x3d146b39	0.036235068
11	0xbd048dd8	-0.032361835
12	0xbcd9c565	-0.026583383
13	0x3d1d6efd	0.038435925
14	0xbcb82e3a	-0.02248298
15	0x3cd34a21	0.025792183
16	0x3c5a3277	0.013317696
17	0xbbffbe8f	-0.007804699
18	0x3cca4763	0.024692243
19	0x3d0745b9	0.033025477
20	0x3cbe8962	0.023258869
21	0xbc946064	-0.018112369
22	0x3cb84b52	0.022496853
23	0x3ca9a122	0.020706717
24	0xbce8aedd	-0.028403694
25	0x3ca1001e	0.019653376
26	0x3c0b04d6	0.00848504
27	0xbcf4c80e	-0.02988055
28	0xbced438f	-0.028962879
29	0xbc37fd4e	-0.011229826
30	0x3d173f46	0.036925577
31	0x3c5219b7	0.012823514
32	0xbca828ab	-0.020527204
33	0x3d1ce6be	0.03830599
34	0xbcc41585	-0.023936043
35	0xbcf6b3a3	-0.030114954
36	0x3c9ab69f	0.018885909
37	0x3c9cf3aa	0.019159157
38	0x3cffcbeb	0.031225165
39	0x3ca45352	0.020059261
40	0x3c8a174d	0.016856814
41	0xbcdf88d3	-0.027286923
42	0x3d22b366	0.03972187
43	0x3cb51344	0.022103913
44	0x3cc7b8b6	0.02438007
45	0xbd0ea1ab	-0.034822147
46	0xbcdb2192	-0.026749406
47	0x3cda02d9	0.026612686
48	0xbcb9af62	-0.022666637
49	0x3d18eb1d	0.037333596
50	0xbcd2de14	-0.02574066
51	0x3cd8f580	0.026484251
52	0x3cf6801a	0.03009038
53	0xbd044899	-0.032295797
54	0xbcbf6992	-0.02336577
55	0xbc711bc8	-0.014716096
56	0x3c9b1734	0.018931963
57	0xbd084d8d	-0.033277083
58	0x3d00026a	0.031252302
59	0x3cee82f7	0.029115183
60	0xbcc3e8a7	-0.023914648
61	0x3c0f2d08	0.008738764
62	0xbcb203cd	-0.021730328
63	0x3ccbce52	0.024878655
64	0xbd0ac3ff	-0.033878323
65	0x3c43b66f	0.011945351
66	0xbcf89112	-0.030342612
67	0x3cb66a41	0.022267463
68	0x3cbd8b0d	0.023137594
69	0xbc6100b5	-0.013733079
70	0x3d058a71	0.03260273
71	0x3d0bacd6	0.034100376
72	0xbc90b104	-0.017662533
73	0x3cb95ca7	0.022627188
74	0xbcecf1c0	-0.02892387
75	0xbd187302	-0.037219055
76	0xbcc771de	-0.024346288
77	0xbc9fb76a	-0.019496638
78	0xbc51b64e	-0.0127998125
79	0xbcab847e	-0.0209372

net.network.1.net.3.weight f4 [80, 80, 2]
0	0xbc740c05	-0.014895444
1	0x3ca6e87f	0.020374535
2	0xba17aaf2	-0.00057856657
3	0xbbf00dd0	-0.0073258653
4	0x3ca879d6	0.020565908
5	0x3c23a49b	0.0099879755
6	0xbb1f2153	-0.0024281337
7	0xbc49834f	-0.012299373
8	0x3c131c31	0.008978889
9	0x3aa60c96	0.0012668546
10	0x3bdd6b45	0.0067571723
11	0x3be71cee	0.0070530092
12	0xbc269df7	-0.010169498
13	0x3c4f8218	0.012665294
14	0xbbe8d1eb	-0.0071051023
15	0x39b5819e	0.00034619583
16	0x3a495e5e	0.00076816033
17	0x3a5f7d12	0.0008525412
18	0x3c9d72e0	0.019219816
19	0x3c868092	0.016418729
20	0x3bb71cc4	0.005588146
21	0x3c3228bb	0.010873969
22	0x3a97b774	0.0011575059
23	0xbbd553e9	-0.006510247
24	0x3bd08238	0.0063631795
25	0x3b9dfa49	0.004821096
26	0x3c4d7231	0.012539432
27	0x3c4e34e0	0.012585849
28	0xbc0059a8	-0.007833876
29	0x3b768073	0.0037613183
30	0x3c08400a	0.008316049
31	0x3c38541d	0.011250523
32	0x3c415911	0.01180102
33	0x3bb04320	0.0053790957
34	0xbae7f9d4	-0.0017698356
35	0xbb363eb4	-0.002780837
36	0xbc2ad11f	-0.010425835
37	0xbb4cafa9	-0.0031232631
38	0xbb688d93	-0.0035484775
39	0xba8d8717	-0.0010797706
40	0x3c371d28	0.011176385
41	0x3bd2b2db	0.0064300126
42	0xbb2267c6	-0.0024781092
43	0x3b9798b9	0.0046263603
44	0x3bbee1ee	0.0058252728
45	0x3c6d0b0c	0.014467966
46	0x3b5ba77b	0.0033516574
47	0x3c5f6876	0.013635745
48	0x3bd38616	0.0064551933
49	0xbb8c81d9	-0.00428794
50	0x3bd440ec	0.006477466
51	0x3caeb403	0.02132607
52	0x3baa5e2f	0.005199216
53	0x3c8221dd	0.015885288
54	0x3a4325a2	0.00074442674
55	0xbb4058f7	-0.0029349902
56	0x3bcb98a1	0.006213263
57	0xbbadbd99	-0.005302143
58	0xbad5fbdf	-0.0016325674
59	0x3bf5ee3b	0.007505206
60	0x3c3117eb	0.010808925
61	0x3c327b51	0.010893659
62	0x3c330c50	0.0109282285
63	0x3c263341	0.010144056
64	0x3ae96d52	0.0017809069
65	0xbb17ba2e	-0.0023151743
66	0x3c0f6519	0.008752131
67	0x3c29d15c	0.010364857
68	0xbb2e379a	-0.0026583434
69	0xbbb46445	-0.005505117
70	0xbb5d512d	-0.0033770308
71	0xbb43683d	-0.002981677
72	0x3c99ad69	0.018759446
73	0x3bf825b3	0.0075728535
74	0x3ca3bf31	0.019988628
75	0x3c634e15	0.013873597
76	0xbb5a0bcb	-0.003327119
77	0x3c7569f7	0.014978877
78	0x3be3d3db	0.0069527454
79	0x3c3e702b	0.011623423
80	0xb58f4e83	-1.067718e-06
81	0x3c176c43	0.00924212
82	0xbb94f2a6	-0.0045455275
83	0xb8ac290b	-8.209244e-05
84	0xba555d75	-0.00081392314
85	0x3ce326b8	0.027728423
86	0x3bdebea5	0.006797629
87	0x3c8d9768	0.01728411
88	0x3bca753b	0.0061785257
89	0x3bbe60e4	0.00580989
90	0xb8a29da0	-7.754122e-05
91	0xbaf74596	-0.0018865343
92	0xbbf68e74	-0.007524306
93	0xbbe7aa6a	-0.0070698755
94	0x3c545d6d	0.012961728
95	0x3c237839	0.009977394
96	0x3afe51f8	0.0019403091
97	0x3a8e195b	0.0010841297
98	0x3c6f353b	0.0146000935
99	0x3c854c93	0.016271865
100	0x3ae3f05c	0.0017390358
101	0xbb9f7be4	-0.004867064
102	0x3bb9ffc2	0.0056762407
103	0x3c531ee5	0.012885784
104	0xbb8d1cbc	-0.004306404
105	0x3bfcd257	0.007715504
106	0xbbb42743	-0.0054978444
107	0x3bfe9013	0.00776864
108	0x3a16bb74	0.00057499786
109	0x3b4a2e61	0.0030850398
110	0xbc00abe4	-0.007853482
111	0x3bfd1422	0.0077233473
112	0x3cabb382	0.02095962
113	0x3b338272	0.0027390984
114	0xba9ee745	-0.0012123367
115	0xbc7b268b	-0.015329014
116	0x3b4de292	0.0031415564
117	0x3c441793	0.011968511
118	0x3bada0a0	0.005298689
119	0x3c832de2	0.01601309
120	0x3ba51786	0.0050382046
121	0xbbdc4d41	-0.0067230766
122	0x3c42138d	0.011845482
123	0x3c363201	0.01112032
124	0x3c05b05a	0.008159721
125	0x3b602f11	0.0034207741
126	0x3ca25411	0.019815477
127	0xbb2e81f3	-0.0026627749
128	0x3bd0b1d4	0.006368855
129	0xbc6aeff9	-0.0143394405
130	0x3c320347	0.010865039
131	0x3c8178b3	0.015804624
132	0x39e2a443	0.00043228464
133	0xbb97f9f8	-0.004637953
134	0x3bee3302	0.007269264
135	0xbbc280b8	-0.0059357546
136	0x3c7d4215	0.01545765
137	0x3c5148c1	0.012773694
138	0x3ba98e55	0.005174438
139	0xbb616403	-0.0034391887
140	0x3b91c38e	0.0044483608
141	0x3b4c3230	0.0031157844
142	0x3c61ec03	0.01378918
143	0x3c9fea3b	0.01952087
144	0x3d23b164	0.039964095
145	0x3d238fcc	0.039932057
146	0x3c0a55be	0.008443294
147	0x3c867165	0.016411493
148	0xbbeb76aa	-0.0071857767
149	0xbbf9bb7e	-0.0076212278
150	0xbbda53e2	-0.0066628316
151	0xbc35e423	-0.011101755
152	0x398b0f87	0.00026523715
153	0x3a1f9502	0.00060875725
154	0xbb8b42b1	-0.0042498936
155	0xbbc0c960	-0.005883381
156	0x3bef4265	0.007301616
157	0x3bae1cc0	0.005313486
158	0xbc62b0f3	-0.013836133
159	0x3a974ed1	0.0011543875
160	0x3988140b	0.00025954875
161	0x38c4cbad	9.383946e-05
162	0x3a792a7d	0.00095049274
163	0x3b12f250	0.0022422262
164	0xbbfae6c7	-0.0076569053
165	0xbb9b9a7a	-0.0047486397
166	0x3c57180c	0.013128292
167	0x3bc18815	0.005906115
168	0x399a04d7	0.00029376775
169	0xba9bb29d	-0.0011878792
170	0x3a7b5a8e	0.0009588384
171	0x3aa0bec4	0.0012263884
172	0xba1288f7	-0.00055898674
173	0x3b9124ef	0.0044294517
174	0xba078ea4	-0.00051710964
175	0xba670237	-0.0008812281
176	0x3b38dcf7	0.0028207877
177	0xb9c73f2d	-0.00038003307
178	0x3af32339	0.0018549926
179	0x3c2790de	0.01022741
180	0x397d9e18	0.00024186855
181	0x3aa926e6	0.0012905269
182	0x3af0a411	0.0018359442
183	0x39bf6007	0.00036501905
184	0x3afb6ed6	0.0019182812
185	0x3b3ccd28	0.0028808806
186	0x3bbbbb1b	0.005729092
187	0x3c0ce7b0	0.0086001605
188	0x3890e2a7	6.9086724e-05
189	0x3ad55893	0.0016277008
190	0x3bb7f4f3	0.005613917
191	0x39ed8228	0.00045301137
192	0xbbabceeb	-0.0052431724
193	0x3b074ae3	0.0020644001
194	0x3b5050f8	0.0031786542
195	0x3b9b5efd	0.004741548
196	0xbbba7a52	-0.0056908512
197	0x3b5deb94	0.003386234
198	0x3af90002	0.0018997195
199	0x3a803134	0.0009780289
200	0x3c013b89	0.007887729
201	0xbb5879aa	-0.0033031502
202	0x3aa78fa0	0.0012783892
203	0xb911c435	-0.0001390137
204	0xbb56864f	-0.0032733863
205	0x3b65b3a8	0.003504971
206	0xbbe5023d	-0.006988792
207	0x3b0f8b56	0.002190312
208	0x3ad4699e	0.0016205793
209	0x39fa5c31	0.00047752404
210	0xbada9030	-0.0016675051
211	0x3b052689	0.0020317158
212	0xbb8e2ecf	-0.004339076
213	0x38dea7b8	0.00010617025
214	0x3adf5fcc	0.00170421
215	0x3b25b7bd	0.0025286519
216	0xba3c6a4a	-0.0007187469
217	0x3abadc45	0.0014256319
218	0xb80095a9	-3.065696e-05
219	0x3b55c6e4	0.0032619769
220	0x3b169822	0.0022978862
221	0xbae256b7	-0.0017268275
222	0xbb3101d6	-0.002700915
223	0xb9a0d52c	-0.00030676404
224	0x3ad1347d	0.0015961077
225	0xb6db3cad	-6.533772e-06
226	0x3910aafc	0.00013796607
227	0xbb14de59	-0.0022715537
228	0xba463aba	-0.00075618515
229	0x3b4ca3a8	0.0031225476
230	0x3a1cfc5f	0.0005988534
231	0x3b020a8d	0.0019842715
232	0x3b2a0f71	0.0025949145
233	0x3b7eeea0	0.0038899556
234	0x3bf8c3a6	0.0075916825
235	0x3c124c6f	0.008929356
236	0x3b93156f	0.004488639
237	0xbbe5c95f	-0.0070125307
238	0xbbd26872	-0.0064211423
239	0x3c2c5546	0.010518378
240	0x3ae7e520	0.0017692186
241	0x3c1d9c78	0.009619825
242	0x3aaf1eab	0.001336058
243	0xba4b1d6e	-0.0007748221
244	0x3bb627bb	0.0055589355
245	0x3bba6ce0	0.0056892484
246	0xbba6b58a	-0.005087559
247	0xbbb7dc13	-0.0056109517
248	0x3acc0a29	0.0015566993
249	0xba10556e	-0.0005505894
250	0xbaccaa73	-0.0015614763
251	0x3b1624e1	0.0022910165
252	0xbaa6cf0c	-0.00127265
253	0x3af64566	0.0018788993
254	0xbbc4a913	-0.0060016005
255	0xbb534264	-0.0032235617

net.network.1.net.3.bias f4 [80]
0	0x3cf0e864	0.029407687
1	0xbb9fdecc	-0.0048788544
2	0xbbd934f5	-0.0066286274
3	0x3d06cb66	0.03290882
4	0x3cc5b2c4	0.024133094
5	0x3cdbf91b	0.026852181
6	0xbc0661f2	-0.008202063
7	0x3c91971f	0.017772255
8	0xbced3ed2	-0.02896062
9	0x3c108dd4	0.008822877
10	0x3b09c66f	0.0021022817
11	0xbd18f3a2	-0.03734172
12	0x3cde0da6	0.027106117
13	0x39a63623	0.00031702322
14	0x3bfe7afd	0.007766126
15	0x3cf476c5	0.02984179
16	0x3cc023c8	0.023454562
17	0x3ac5537a	0.0015054785
18	0xbd108367	-0.035281565
19	0xbd21191a	-0.03933058
20	0x3d04a1fb	0.03238104
21	0xbc27df46	-0.010246104
22	0x3ce5ecd8	0.028067037
23	0x3c3e0fa7	0.0116004115
24	0x3d09efe0	0.03367603
25	0x3d2274fe	0.039662354
26	0x3c622ba4	0.01380435
27	0xbd0c135d	-0.034198154
28	0xbcfe6126	-0.031052183
29	0xbd011c61	-0.031521205
30	0xbcfabcc1	-0.030607583
31	0x3bed1796	0.0072354777
32	0xbb8ef25d	-0.004362388
33	0xbd1d5e9c	-0.038420305
34	0x3c82f76b	0.015987119
35	0x3bed911a	0.0072499635
36	0xbcdfd4fa	-0.027323235
37	0x3d089aea	0.033350863
38	0x3c63588a	0.01387609
39	0xbb570543	-0.0032809533
40	0xbd01bae2	-0.031672366
41	0xbc86ca27	-0.016453816
42	0x3d158173	0.036500406
43	0xb89ca0e8	-7.468631e-05
44	0xbb56da06	-0.003278376
45	0x3c898e21	0.016791405
46	0xbca45cf5	-0.020063857
47	0xbd12f14b	-0.035874646
48	0xbd09bd15	-0.03362759
49	0x3c0c6e0f	0.008571162
50	0xbc4aae41	-0.012370647
51	0xbd1f31e2	-0.03886593
52	0xbc8bcf96	-0.017066758
53	0x3c92c941	0.017918231
54	0xbd1f9062	-0.038956054
55	0x3ce4039d	0.027833754
56	0x3d0d2d18	0.034466833
57	0xbc847195	-0.016167441
58	0xbd2195c7	-0.03944948
59	0x3c6c34e6	0.014416909
60	0xbcd19b81	-0.025586845
61	0x3d04119e	0.032243364
62	0x3d0071de	0.031358592
63	0x3d04d086	0.032425426
64	0x3d0724ed	0.0329942
65	0xbcd81a41	-0.026379706
66	0x3cfd6235	0.030930618
67	0x3cb18701	0.02167082
68	0xbc96b8af	-0.01839861
69	0x3cd38353	0.025819456
70	0x3cfa7a16	0.030575793
71	0x3c9738d7	0.01845972
72	0xbd194c74	-0.037426427
73	0xbcf0ddcc	-0.029402636
74	0xbcc2152d	-0.023691738
75	0xbccdad9d	-0.0251072
76	0xbcdb564c	-0.026774548
77	0x3d111263	0.035417926
78	0x3cc11c6c	0.023573123
79	0x3cba5973	0.02274773

net.network.1.downsample.weight f4 [80, 1, 1]
0	0x3cb11d19	0.02162032
1	0x3d22e8f7	0.039772954
2	0x3ce19bd0	0.027540118
3	0x3b1072d3	0.0022041097
4	0xbc9f131b	-0.01941829
5	0xba2fa4b0	-0.00067002606
6	0x3adf0ef6	0.0017018009
7	0x3b1e698d	0.00241718
8	0x3b137621	0.002250083
9	0xbc26bc9b	-0.010176803
10	0xbc04cc1e	-0.008105306
11	0xbbf18063	-0.007370041
12	0xbc323b86	-0.010878449
13	0x3c39728f	0.011318817
14	0xbc05dd65	-0.00817046
15	0xbb5677f5	-0.0032725309
16	0x39e2539c	0.00043168373
17	0xbc31c5c8	-0.010850377
18	0x3c86bef7	0.016448481
19	0xbbb78dfe	-0.0056016436
20	0xba4e0fab	-0.0007860611
21	0x3c3e6901	0.011621715
22	0xba8b8ef0	-0.0010647457
23	0x3b9864e3	0.0046506985
24	0xbcd3699d	-0.025807196
25	0x3bce012f	0.006286762
26	0x3bc416c3	0.0059841587
27	0x3bcfdf10	0.00634373
28	0xba357dcd	-0.0006923348
29	0xbc1dbb16	-0.009627124
30	0xbb15e9d7	-0.0022874975
31	0xbc0d129a	-0.008610392
32	0x3bc2ceb6	0.005945052
33	0xbb43a6c4	-0.0029854039
34	0xbb41de85	-0.0029582095
35	0xbcb3cb58	-0.021947548
36	0xbb4ee996	-0.0031572334
37	0x3be10d69	0.0068680537
38	0x3b37bb16	0.0028035096
39	0x3b228405	0.0024797928
40	0x3af889ce	0.0018961967
41	0x3bb500cb	0.005523776
42	0xbcf03751	-0.029323252
43	0x3c996334	0.018724062
44	0x3cabe91f	0.020985184
45	0x3c064c51	0.008196906
46	0x397d2288	0.00024140824
47	0x3aa8c6c6	0.0012876622
48	0x3cbd1a15	0.023083726
49	0xbb98b131	-0.0046597947
50	0xbc1c8831	-0.009553955
51	0x3b10d432	0.0022099135
52	0xbb90b7dc	-0.004416449
53	0x3d04ca25	0.032419343
54	0x3bcd96aa	0.006274064
55	0xb92cc72f	-0.000164774
56	0x3cca0e7b	0.024665108
57	0xb947a417	-0.00019039247
58	0x3c54bda5	0.012984668
59	0xbc23a1bd	-0.009987292
60	0x3ba5761d	0.0050494806
61	0x3bdaf585	0.0066821002
62	0x3b0dfd7e	0.0021665986
63	0x3bf7c80e	0.00756169
64	0x3b8d59ee	0.004313699
65	0xbc9d70e9	-0.019218879
66	0xbbb96078	-0.005657252
67	0xba0bd1a8	-0.00053336704
68	0x3b95a27b	0.0045664883
69	0x3c39d588	0.011342414
70	0x3a220949	0.0006181193
71	0x3c82e3d4	0.015977778
72	0xbae79c66	-0.0017670512
73	0x37ab375d	2.0410569e-05
74	0x3c5bc92c	0.013414662
75	0x3ca26bea	0.019826848
76	0xbb9f32c9	-0.004858349
77	0x3c0bce4c	0.008533072
78	0xba6aff62	-0.00089644466
79	0xb7a0a9b7	-1.9152516e-05

net.network.1.downsample.bias f4 [80]
0	0xbce8fbbd	-0.02844035
1	0xbc98c608	-0.018649116
2	0x3a2d0816	0.0006600631
3	0x3cd076c3	0.025447255
4	0xbca95415	-0.020669976
5	0xbc208c9a	-0.009799147
6	0x3ccfc01a	0.025360156
7	0x3cd6781d	0.026180321
8	0x3cc101ee	0.02356049
9	0xbd021360	-0.03175676
10	0xbc1c239a	-0.009529972
11	0x3cd9b70e	0.026576545
12	0x3cd4631c	0.025926165
13	0x3cd0ec05	0.025503168
14	0x3cc1a871	0.02363989
15	0x3cd367ae	0.025806274
16	0xbd04e67a	-0.032446362
17	0x3cddf88b	0.027096054
18	0xbd20100a	-0.039077796
19	0x3cd4f9b3	0.025997972
20	0x3ccf6030	0.02531442
21	0xbc521da5	-0.012824451
22	0x3ca5684e	0.020191338
23	0xbd1ac4e1	-0.037785415
24	0xbca88ef4	-0.020575978
25	0x3ce89fbd	0.028396482
26	0x3ce21c9b	0.02760153
27	0x3ccbf9fa	0.024899472
28	0x3ceeba51	0.029141577
29	0x3cd3180f	0.025768308
30	0x3cd53642	0.026026849
31	0x3cc2c149	0.023773806
32	0xbbcd4da5	-0.0062653595
33	0x3cd88323	0.026429718
34	0x3cc93aff	0.024564264
35	0xbce053a1	-0.027383627
36	0xbc6b0c57	-0.014346204
37	0xbcc1fca5	-0.02368004
38	0xbd0247b1	-0.03180665
39	0xbca5fb70	-0.020261496
40	0x3cd55769	0.026042657
41	0xbd1e708c	-0.03868155
42	0xbc915280	-0.017739534
43	0xbb93a2f0	-0.0045055076
44	0x3bc683ca	0.006058191
45	0x3cc69739	0.02424203
46	0x3c5d0a14	0.013491172
47	0x3cb2594e	0.0217711
48	0xbd165c94	-0.036709383
49	0x3ce427da	0.027851034
50	0x3cd14c63	0.02554912
51	0x3ce4746c	0.027887546
52	0xbcf700cc	-0.030151747
53	0xbcafac1b	-0.021444371
54	0x3cdf01ef	0.027222602
55	0x3cd9c28a	0.026582021
56	0xbceca559	-0.028887438
57	0x3cc8b264	0.024499126
58	0xbd1f5810	-0.038902342
59	0x3cd538a9	0.026027994
60	0xbcb2b8b2	-0.021816585
61	0xbcecef82	-0.0289228
62	0x3cd0aaeb	0.025472125
63	0xbc8c7c5e	-0.017149147
64	0xbcc05620	-0.023478568
65	0xbd0db460	-0.034595847
66	0xbcd78688	-0.026309267
67	0x3cdb14c5	0.026743302
68	0x3cd38fb7	0.025825365
69	0xbd0bc124	-0.03411974
70	0x3ccd6ac9	0.025075333
71	0x3cb49f94	0.022048749
72	0x3ccb3572	0.024805758
73	0x3cc7981c	0.024364524
74	0xbcfea355	-0.031083742
75	0xbcb403e3	-0.02197451
76	0xbcb01748	-0.021495476
77	0x3cd4d8b3	0.025982236
78	0xbc7a6b2e	-0.015284343
79	0x3cfd6e52	0.030936394

net.network.2.dconv1.weight f4 [80, 80, 2]
0	0xbc1356d0	-0.008992866
1	0xbb548b03	-0.003243149
2	0x3c9421b6	0.01808248
3	0x3c809f82	0.01570106
4	0xbbba764e	-0.0056903725
5	0xbaa50606	-0.0012590296
6	0xbc8c65f7	-0.017138464
7	0xbcdbf954	-0.026852287
8	0xbc7ce92d	-0.015436453
9	0xbc0e7c3e	-0.008696614
10	0xbc65a184	-0.014015559
11	0xbc06ea1a	-0.008234525
12	0xbcdd1db4	-0.026991703
13	0xbc951b95	-0.018201629
14	0xbcb15efc	-0.021651737
15	0xbcd40ebe	-0.025885936
16	0xbcd4dc29	-0.025983887
17	0xbcc3e2eb	-0.023911914
18	0x3c24d340	0.010060132
19	0x3c21af6a	0.009868482
20	0x3b864bc6	0.0040983884
21	0x3b551a2f	0.0032516827
22	0xbccb65c2	-0.024828795
23	0xbcd63f02	-0.026153091
24	0xbd1060b5	-0.035248477
25	0xbd06c79f	-0.032905217
26	0xbcd26569	-0.025683122
27	0xbcdc6af6	-0.026906472
28	0xbd027915	-0.031853754
29	0xbca97209	-0.020684259
30	0xbd041845	-0.032249708
31	0xbc85b917	-0.01632361
32	0x3ad6d762	0.0016391093
33	0xbbf1ae8d	-0.0073755444
34	0xbcb14bf3	-0.02164266
35	0xbca290ff	-0.01984453
36	0x3c00afb3	0.00785439
37	0x3bfd975f	0.007738992
38	0xbcc8372a	-0.024440367
39	0xbcbc5993	-0.022991931
40	0xbcab9dd1	-0.020949276
41	0xbc9448a0	-0.018101037
42	0x3b8812e3	0.004152642
43	0x3b32064e	0.0027164402
44	0xbcd77358	-0.026300117
45	0xbc3cda23	-0.011526617
46	0x3c68e160	0.01421389
47	0x3c04671d	0.008081225
48	0xbc00b3cf	-0.00785537
49	0xbc213c2b	-0.009841005
50	0xbc59cab0	-0.013292953
51	0xbcd5baff	-0.026090143
52	0xbcca5650	-0.02469936
53	0xbc5acf0b	-0.013355027
54	0xbcc54853	-0.024082338
55	0xbcd9af07	-0.026572717
56	0xbcd6dd64	-0.026228614
57	0xbcd07609	-0.025446909
58	0xbccb5ee7	-0.024825526
59	0xbcbd12e5	-0.023080299
60	0xbcd20f6f	-0.025642125
61	0xbcd162f8	-0.025559887
62	0xbca1f25b	-0.019768884
63	0xbcd2b3b7	-0.02572046
64	0x3c0bd68c	0.008535039
65	0x3ba0a9f1	0.004903071
66	0xbcd92601	-0.02650738
67	0xbcc7e662	-0.024401847
68	0xbd1cf640	-0.03832078
69	0xbc5c3118	-0.013439439
70	0xbad94586	-0.0016576506
71	0xba87a723	-0.0010349493
72	0x3beab4ba	0.0071626576
73	0x3baf8f49	0.005357657
74	0xbcf3edd3	-0.02977649
75	0x3c0da6fd	0.00864577
76	0x3c0ea9eb	0.008707504
77	0x3c0436b2	0.008069681
78	0x3c018cd0	0.0079071075
79	0x3bb744f9	0.005592939
80	0xbcc7da3f	-0.02439606
81	0xbcd0ca32	-0.02548704
82	0x3c286004	0.010276798
83	0x3b9c6c98	0.0047736876
84	0xbbed14a6	-0.0072351275
85	0xbc3de696	-0.0115906205
86	0x3bfd6fc0	0.007734269
87	0x3b6e00dc	0.003631643
88	0xbc688a4f	-0.014193132
89	0xbc408185	-0.01174963
90	0xbd16b0e9	-0.03678981
91	0xbbfc6601	-0.0077025895
92	0xbcccc8cb	-0.02499809
93	0xbc9a094a	-0.018803257
94	0xbce33cd1	-0.02773896
95	0xbcdb80c2	-0.026794795
96	0x3c221c15	0.009894391
97	0x3bef2013	0.0072975247
98	0xbcb6b56c	-0.022303306
99	0xbc956834	-0.018238164
100	0xbcbe1adb	-0.023206165
101	0xbcea90d3	-0.02863351
102	0xbcd0d56a	-0.025492389
103	0xbcc40c70	-0.023931712
104	0x3bc53a7d	0.0060189352
105	0x3bdc6533	0.006725931
106	0xbc973c28	-0.018461302
107	0xbcc9de84	-0.024642237
108	0xbcd53341	-0.026025416
109	0xbccb2d53	-0.024801886
110	0xbcf1e043	-0.029525882
111	0xbcc0972e	-0.023509588
112	0xba9d20c8	-0.0011987919
113	0xbc23956c	-0.009984355
114	0xbcd27a64	-0.025693126
115	0xbcaa0478	-0.020754084
116	0x3c07d78d	0.008291137
117	0x3c12ccea	0.008959988
118	0xbccbe97b	-0.024891606
119	0xbcbe7ded	-0.023253405
120	0x3bb6676a	0.005566527
121	0x3bbddfa3	0.005794482
122	0xbc0d04d4	-0.008607108
123	0xbc83ab00	-0.01607275
124	0xbd1ca687	-0.03824475
125	0xbc45405c	-0.01203927
126	0xbc7949f8	-0.015215389
127	0x3c64030d	0.013916743
128	0xbceb4efb	-0.028724184
129	0xbc260e7d	-0.01013529
130	0x3be8a625	0.007099884
131	0x3bf62501	0.0075117354
132	0xbb4f2098	-0.003160512
133	0xbbd23398	-0.006414842
134	0xbcc2bd12	-0.023771796
135	0xbca79062	-0.02045459
136	0xbcae3096	-0.021263402
137	0xbcc370d5	-0.023857513
138	0x3b362ee0	0.0027798936
139	0xbb951f58	-0.0045508556
140	0xbca75c9e	-0.020429906
141	0xbb21b93c	-0.0024677059
142	0xbcb464ec	-0.02202078
143	0xbc53a136	-0.012916854
144	0xbcd8b4bc	-0.026453368
145	0xbcbf06d3	-0.023318684
146	0xbcc0116f	-0.023445813
147	0xbcb319c1	-0.021862866
148	0x3c1f7d5a	0.009734476
149	0x3c16b481	0.009198309
150	0x3c024249	0.007950374
151	0x3bb4988f	0.0055113505
152	0x3bd50934	0.0065013412
153	0x3be28ed4	0.006913999
154	0xbc55ac37	-0.0130415475
155	0xbcecbf53	-0.028899824
156	0x3b5441de	0.0032387893
157	0x3b676f4a	0.0035314136
158	0xbcea1bfb	-0.028577795
159	0xbcbfd949	-0.02341904
160	0xba98191b	-0.0011604162
161	0xbc86d0b5	-0.016456941
162	0x3b9ec4a3	0.0048452183
163	0x3bb0d3b9	0.005396333
164	0x3af4c944	0.0018675704
165	0xba87954f	-0.001034418
166	0xbbd85773	-0.0066022216
167	0xbbc17416	-0.005903731
168	0xbc27a491	-0.010232107
169	0xbbb2d063	-0.0054569705
170	0x3c0cd760	0.008596271
171	0xbbc343f5	-0.005959029
172	0xbba6adc9	-0.005086635
173	0xbb599f78	-0.0033206623
174	0x3acb0be9	0.001549122
175	0xbb0da3ae	-0.0021612453
176	0xbaddd50b	-0.0016924454
177	0x3ad6ce6b	0.0016388422
178	0x3b9eaa98	0.0048421137
179	0x3ae1396e	0.0017183253
180	0x3b048742	0.0020222222
181	0xba64739b	-0.00087147363
182	0xbb675d9b	-0.0035303596
183	0x3a21e4b5	0.00061757426
184	0x3af6032c	0.0018769256
185	0x3bf1b8d8	0.0073767714
186	0xbba87f32	-0.005142116
187	0x3ba8165f	0.00512962
188	0x3a02fc36	0.0004996689
189	0xbaca2422	-0.0015422145
190	0x3a4fef84	0.0007932114
191	0x3b11d427	0.0022251697
192	0x3b81c193	0.0039598434
193	0x3c074c9c	0.008258011
194	0xbb23f986	-0.0025020554
195	0xb7989370	-1.8188468e-05
196	0x3ade38ff	0.0016954242
197	0x3b612ebb	0.003436013
198	0x3a39e375	0.00070910837
199	0xbab7096e	-0.0013964602
200	0x3ba1b86a	0.004935314
201	0x3b9ab22e	0.0047209477
202	0x3b2d67cd	0.0026459575
203	0x3af6f1c9	0.0018840368
204	0xbc36925f	-0.011143296
205	0x3c1a2d5a	0.009410227
206	0x3b5db690	0.003383074
207	0xbc2c4e73	-0.010516751
208	0xbc5f5d6c	-0.013633113
209	0x3bc590ad	0.0060292096
210	0xbc682be8	-0.014170624
211	0xbb168eb5	-0.0022973244
212	0x3c1772bc	0.009243663
213	0xbb29461a	-0.0025829137
214	0xbb852015	-0.0040626624
215	0x3a6dc3c2	0.00090700027
216	0xbba728c3	-0.0051012947
217	0x3a874098	0.0010318933
218	0xbafbd4c4	-0.0019213189
219	0xb9abf9af	-0.0003280169
220	0xbab6c9ab	-0.00139456
221	0x3b36640c	0.0027830629
222	0xbb4bc034	-0.0031089904
223	0xbb782577	-0.0037864128
224	0x3b6a15bf	0.0035718528
225	0x3a9fc5f5	0.0012189733
226	0xbb4835df	-0.0030549688
227	0x3887f3a6	6.482685e-05
228	0x3c623f3a	0.01380902
229	0xba32d6a6	-0.0006822146
230	0x3cb8ca75	0.022557477
231	0xbbf79c10	-0.007556446
232	0x3b767461	0.0037605988
233	0x3adce501	0.0016852916
234	0xbc575ec6	-0.013145154
235	0xbccd416d	-0.025055612
236	0xbbbf8efe	-0.0058459034
237	0xbc36cdde	-0.011157481
238	0x3bc1103e	0.005891829
239	0x39cf6340	0.00039556064
240	0xbb3941df	-0.0028268022
241	0x3a9e7b77	0.0012091239
242	0x3b6b9059	0.0035944192
243	0x3b90c493	0.0044179647
244	0xbc53270e	-0.012887729
245	0xb9c4aadf	-0.00037511342
246	0xbbb242ce	-0.0054400926
247	0xbbfd6be2	-0.007733808
248	0xbbf7f4cc	-0.007567024
249	0x3b62c22a	0.0034600594
250	0x3c0ceea7	0.008601821
251	0xbc146a0d	-0.009058488
252	0xbbcb77ab	-0.006209334
253	0xbb98950b	-0.004656439
254	0xbb0871d8	-0.002081981
255	0x3a938896	0.0011255916

net.network.2.dconv1.bias f4 [80]
0	0xbd216297	-0.039400663
1	0x3c23af49	0.009990522
2	0xbc3766ce	-0.011193944
3	0x3bdcf15f	0.006742641
4	0x3cd26c85	0.025686512
5	0x3cab98cc	0.020946883
6	0x3c7d0287	0.015442497
7	0xbd0b7639	-0.034048293
8	0x3d13f66a	0.03612367
9	0xbcd4f391	-0.025995048
10	0xbc2a2cca	-0.010386655
11	0xbccee5e1	-0.0252561
12	0xbc5f0de8	-0.013614155
13	0xbd080387	-0.03320649
14	0x3cff5fb6	0.031173568
15	0x3ca2678b	0.019824764
16	0xbc7e769f	-0.015531211
17	0xbc70f9dc	-0.014708009
18	0x3cde06f3	0.027102923
19	0x3b73be38	0.0037192237
20	0x3ccdd284	0.025124796
21	0xbd03e87a	-0.03220413
22	0xbbc71234	-0.006075168
23	0xbc60ba90	-0.013716355
24	0xbc9dc8dc	-0.019260816
25	0x3b0aeed9	0.0021199493
26	0x3cfc4d70	0.030798644
27	0x3d078250	0.03308326
28	0x3ce2cb44	0.027684815
29	0xbce87eeb	-0.028380832
30	0x3c887aac	0.016660057
31	0xbd1e1f00	-0.038603783
32	0x3bbc26da	0.005741936
33	0x3ccf0cf0	0.025274724
34	0x3ce79757	0.028270407
35	0xbd148974	-0.036263898
36	0x3d09a4d8	0.033604473
37	0xbd1a6d43	-0.037701856
38	0x3d04d93c	0.032433733
39	0x3cbcb3b5	0.02303491
40	0xbc897848	-0.016780987
41	0x3cf8d7b0	0.030376285
42	0xbcbf63f3	-0.02336309
43	0x3d0b414b	0.033997815
44	0xbcfd1bc2	-0.030897025
45	0x3cdb5c2d	0.026777351
46	0x3d0d9e27	0.034574654
47	0x3d1a2143	0.037629377
48	0x3cee585b	0.029094866
49	0x3d0a86d7	0.03382
50	0xbcfa3b01	-0.030545713
51	0xbd107209	-0.035265002
52	0x3cfffc40	0.031248212
53	0xbc1578e5	-0.009123062
54	0xbcf95319	-0.030435132
55	0xbd17a560	-0.03702295
56	0x3d0fffe8	0.03515616
57	0xbce1bb42	-0.027555112
58	0x3c89e540	0.016832948
59	0x3c8a38d5	0.016872803
60	0xbb39c107	-0.0028343813
61	0x3d0cfaab	0.034418743
62	0xbcda6f3e	-0.026664373
63	0x3c29ab68	0.010355808
64	0x3c829576	0.01594041
65	0x3d13865a	0.0360168
66	0x3b6afecc	0.0035857437
67	0x3c8d8544	0.01727546
68	0xbd1be281	-0.038057808
69	0x3cf8d42d	0.03037461
70	0x3d07c4e3	0.03314675
71	0xbac7513a	-0.0015206703
72	0x3c9f89fd	0.019474978
73	0xbca69368	-0.02033396
74	0xbd0ed407	-0.034870174
75	0x3c180b34	0.009280015
76	0x3cb98a84	0.022649057
77	0x3cfb7be3	0.030698722
78	0xbc9b01c4	-0.01892174
79	0xbb94863b	-0.004532603
